{"backend": "tensorflow", "config": {"layers": [{"class_name": "InputLayer", "name": "sequence_input", "config": {"batch_input_shape": [null, 700, 21], "sparse": false, "dtype": "float32", "name": "sequence_input"}, "inbound_nodes": []}, {"class_name": "Dense", "name": "dense_1", "config": {"activation": "relu", "kernel_constraint": null, "trainable": true, "bias_initializer": {"class_name": "VarianceScaling", "config": {"mode": "fan_avg", "seed": null, "scale": 1.0, "distribution": "uniform"}}, "kernel_initializer": {"class_name": "VarianceScaling", "config": {"mode": "fan_avg", "seed": null, "scale": 1.0, "distribution": "uniform"}}, "use_bias": true, "bias_regularizer": null, "name": "dense_1", "kernel_regularizer": null, "activity_regularizer": null, "bias_constraint": null, "units": 50}, "inbound_nodes": [[["sequence_input", 0, 0, {}]]]}, {"class_name": "InputLayer", "name": "profile_input", "config": {"batch_input_shape": [null, 700, 21], "sparse": false, "dtype": "float32", "name": "profile_input"}, "inbound_nodes": []}, {"class_name": "Concatenate", "name": "concatenate_1", "config": {"name": "concatenate_1", "trainable": true, "axis": -1}, "inbound_nodes": [[["dense_1", 0, 0, {}], ["profile_input", 0, 0, {}]]]}, {"class_name": "Conv1D", "name": "conv1d_67", "config": {"dilation_rate": [1], "activation": "linear", "kernel_constraint": null, "kernel_size": [1], "trainable": true, "bias_initializer": {"class_name": "VarianceScaling", "config": {"mode": "fan_avg", "seed": null, "scale": 1.0, "distribution": "uniform"}}, "kernel_initializer": {"class_name": "VarianceScaling", "config": {"mode": "fan_avg", "seed": null, "scale": 1.0, "distribution": "uniform"}}, "use_bias": true, "bias_regularizer": null, "name": "conv1d_67", "filters": 64, "kernel_regularizer": null, "activity_regularizer": null, "bias_constraint": null, "padding": "same", "strides": [1]}, "inbound_nodes": [[["concatenate_1", 0, 0, {}]]]}, {"class_name": "BatchNormalization", "name": "batch_normalization_67", "config": {"moving_mean_initializer": {"class_name": "Zeros", "config": {}}, "gamma_constraint": null, "epsilon": 0.001, "beta_regularizer": null, "trainable": true, "beta_constraint": null, "center": true, "gamma_initializer": {"class_name": "Ones", "config": {}}, "name": "batch_normalization_67", "beta_initializer": {"class_name": "Zeros", "config": {}}, "moving_variance_initializer": {"class_name": "Ones", "config": {}}, "momentum": 0.99, "axis": -1, "scale": true, "gamma_regularizer": null}, "inbound_nodes": [[["conv1d_67", 0, 0, {}]]]}, {"class_name": "Activation", "name": "activation_67", "config": {"activation": "relu", "name": "activation_67", "trainable": true}, "inbound_nodes": [[["batch_normalization_67", 0, 0, {}]]]}, {"class_name": "Dropout", "name": "dropout_67", "config": {"rate": 0.45, "name": "dropout_67", "trainable": true}, "inbound_nodes": [[["activation_67", 0, 0, {}]]]}, {"class_name": "Conv1D", "name": "conv1d_64", "config": {"dilation_rate": [1], "activation": "linear", "kernel_constraint": null, "kernel_size": [1], "trainable": true, "bias_initializer": {"class_name": "VarianceScaling", "config": {"mode": "fan_avg", "seed": null, "scale": 1.0, "distribution": "uniform"}}, "kernel_initializer": {"class_name": "VarianceScaling", "config": {"mode": "fan_avg", "seed": null, "scale": 1.0, "distribution": "uniform"}}, "use_bias": true, "bias_regularizer": null, "name": "conv1d_64", "filters": 64, "kernel_regularizer": null, "activity_regularizer": null, "bias_constraint": null, "padding": "same", "strides": [1]}, "inbound_nodes": [[["concatenate_1", 0, 0, {}]]]}, {"class_name": "Conv1D", "name": "conv1d_68", "config": {"dilation_rate": [1], "activation": "linear", "kernel_constraint": null, "kernel_size": [11], "trainable": true, "bias_initializer": {"class_name": "VarianceScaling", "config": {"mode": "fan_avg", "seed": null, "scale": 1.0, "distribution": "uniform"}}, "kernel_initializer": {"class_name": "VarianceScaling", "config": {"mode": "fan_avg", "seed": null, "scale": 1.0, "distribution": "uniform"}}, "use_bias": true, "bias_regularizer": null, "name": "conv1d_68", "filters": 64, "kernel_regularizer": null, "activity_regularizer": null, "bias_constraint": null, "padding": "same", "strides": [1]}, "inbound_nodes": [[["dropout_67", 0, 0, {}]]]}, {"class_name": "BatchNormalization", "name": "batch_normalization_64", "config": {"moving_mean_initializer": {"class_name": "Zeros", "config": {}}, "gamma_constraint": null, "epsilon": 0.001, "beta_regularizer": null, "trainable": true, "beta_constraint": null, "center": true, "gamma_initializer": {"class_name": "Ones", "config": {}}, "name": "batch_normalization_64", "beta_initializer": {"class_name": "Zeros", "config": {}}, "moving_variance_initializer": {"class_name": "Ones", "config": {}}, "momentum": 0.99, "axis": -1, "scale": true, "gamma_regularizer": null}, "inbound_nodes": [[["conv1d_64", 0, 0, {}]]]}, {"class_name": "BatchNormalization", "name": "batch_normalization_68", "config": {"moving_mean_initializer": {"class_name": "Zeros", "config": {}}, "gamma_constraint": null, "epsilon": 0.001, "beta_regularizer": null, "trainable": true, "beta_constraint": null, "center": true, "gamma_initializer": {"class_name": "Ones", "config": {}}, "name": "batch_normalization_68", "beta_initializer": {"class_name": "Zeros", "config": {}}, "moving_variance_initializer": {"class_name": "Ones", "config": {}}, "momentum": 0.99, "axis": -1, "scale": true, "gamma_regularizer": null}, "inbound_nodes": [[["conv1d_68", 0, 0, {}]]]}, {"class_name": "Activation", "name": "activation_64", "config": {"activation": "relu", "name": "activation_64", "trainable": true}, "inbound_nodes": [[["batch_normalization_64", 0, 0, {}]]]}, {"class_name": "Activation", "name": "activation_68", "config": {"activation": "relu", "name": "activation_68", "trainable": true}, "inbound_nodes": [[["batch_normalization_68", 0, 0, {}]]]}, {"class_name": "Dropout", "name": "dropout_64", "config": {"rate": 0.45, "name": "dropout_64", "trainable": true}, "inbound_nodes": [[["activation_64", 0, 0, {}]]]}, {"class_name": "Dropout", "name": "dropout_68", "config": {"rate": 0.45, "name": "dropout_68", "trainable": true}, "inbound_nodes": [[["activation_68", 0, 0, {}]]]}, {"class_name": "Conv1D", "name": "conv1d_62", "config": {"dilation_rate": [1], "activation": "linear", "kernel_constraint": null, "kernel_size": [1], "trainable": true, "bias_initializer": {"class_name": "VarianceScaling", "config": {"mode": "fan_avg", "seed": null, "scale": 1.0, "distribution": "uniform"}}, "kernel_initializer": {"class_name": "VarianceScaling", "config": {"mode": "fan_avg", "seed": null, "scale": 1.0, "distribution": "uniform"}}, "use_bias": true, "bias_regularizer": null, "name": "conv1d_62", "filters": 64, "kernel_regularizer": null, "activity_regularizer": null, "bias_constraint": null, "padding": "same", "strides": [1]}, "inbound_nodes": [[["concatenate_1", 0, 0, {}]]]}, {"class_name": "Conv1D", "name": "conv1d_65", "config": {"dilation_rate": [1], "activation": "linear", "kernel_constraint": null, "kernel_size": [7], "trainable": true, "bias_initializer": {"class_name": "VarianceScaling", "config": {"mode": "fan_avg", "seed": null, "scale": 1.0, "distribution": "uniform"}}, "kernel_initializer": {"class_name": "VarianceScaling", "config": {"mode": "fan_avg", "seed": null, "scale": 1.0, "distribution": "uniform"}}, "use_bias": true, "bias_regularizer": null, "name": "conv1d_65", "filters": 64, "kernel_regularizer": null, "activity_regularizer": null, "bias_constraint": null, "padding": "same", "strides": [1]}, "inbound_nodes": [[["dropout_64", 0, 0, {}]]]}, {"class_name": "Conv1D", "name": "conv1d_69", "config": {"dilation_rate": [1], "activation": "linear", "kernel_constraint": null, "kernel_size": [11], "trainable": true, "bias_initializer": {"class_name": "VarianceScaling", "config": {"mode": "fan_avg", "seed": null, "scale": 1.0, "distribution": "uniform"}}, "kernel_initializer": {"class_name": "VarianceScaling", "config": {"mode": "fan_avg", "seed": null, "scale": 1.0, "distribution": "uniform"}}, "use_bias": true, "bias_regularizer": null, "name": "conv1d_69", "filters": 64, "kernel_regularizer": null, "activity_regularizer": null, "bias_constraint": null, "padding": "same", "strides": [1]}, "inbound_nodes": [[["dropout_68", 0, 0, {}]]]}, {"class_name": "BatchNormalization", "name": "batch_normalization_62", "config": {"moving_mean_initializer": {"class_name": "Zeros", "config": {}}, "gamma_constraint": null, "epsilon": 0.001, "beta_regularizer": null, "trainable": true, "beta_constraint": null, "center": true, "gamma_initializer": {"class_name": "Ones", "config": {}}, "name": "batch_normalization_62", "beta_initializer": {"class_name": "Zeros", "config": {}}, "moving_variance_initializer": {"class_name": "Ones", "config": {}}, "momentum": 0.99, "axis": -1, "scale": true, "gamma_regularizer": null}, "inbound_nodes": [[["conv1d_62", 0, 0, {}]]]}, {"class_name": "BatchNormalization", "name": "batch_normalization_65", "config": {"moving_mean_initializer": {"class_name": "Zeros", "config": {}}, "gamma_constraint": null, "epsilon": 0.001, "beta_regularizer": null, "trainable": true, "beta_constraint": null, "center": true, "gamma_initializer": {"class_name": "Ones", "config": {}}, "name": "batch_normalization_65", "beta_initializer": {"class_name": "Zeros", "config": {}}, "moving_variance_initializer": {"class_name": "Ones", "config": {}}, "momentum": 0.99, "axis": -1, "scale": true, "gamma_regularizer": null}, "inbound_nodes": [[["conv1d_65", 0, 0, {}]]]}, {"class_name": "BatchNormalization", "name": "batch_normalization_69", "config": {"moving_mean_initializer": {"class_name": "Zeros", "config": {}}, "gamma_constraint": null, "epsilon": 0.001, "beta_regularizer": null, "trainable": true, "beta_constraint": null, "center": true, "gamma_initializer": {"class_name": "Ones", "config": {}}, "name": "batch_normalization_69", "beta_initializer": {"class_name": "Zeros", "config": {}}, "moving_variance_initializer": {"class_name": "Ones", "config": {}}, "momentum": 0.99, "axis": -1, "scale": true, "gamma_regularizer": null}, "inbound_nodes": [[["conv1d_69", 0, 0, {}]]]}, {"class_name": "Activation", "name": "activation_62", "config": {"activation": "relu", "name": "activation_62", "trainable": true}, "inbound_nodes": [[["batch_normalization_62", 0, 0, {}]]]}, {"class_name": "Activation", "name": "activation_65", "config": {"activation": "relu", "name": "activation_65", "trainable": true}, "inbound_nodes": [[["batch_normalization_65", 0, 0, {}]]]}, {"class_name": "Activation", "name": "activation_69", "config": {"activation": "relu", "name": "activation_69", "trainable": true}, "inbound_nodes": [[["batch_normalization_69", 0, 0, {}]]]}, {"class_name": "Dropout", "name": "dropout_62", "config": {"rate": 0.45, "name": "dropout_62", "trainable": true}, "inbound_nodes": [[["activation_62", 0, 0, {}]]]}, {"class_name": "Dropout", "name": "dropout_65", "config": {"rate": 0.45, "name": "dropout_65", "trainable": true}, "inbound_nodes": [[["activation_65", 0, 0, {}]]]}, {"class_name": "Dropout", "name": "dropout_69", "config": {"rate": 0.45, "name": "dropout_69", "trainable": true}, "inbound_nodes": [[["activation_69", 0, 0, {}]]]}, {"class_name": "Conv1D", "name": "conv1d_61", "config": {"dilation_rate": [1], "activation": "linear", "kernel_constraint": null, "kernel_size": [1], "trainable": true, "bias_initializer": {"class_name": "VarianceScaling", "config": {"mode": "fan_avg", "seed": null, "scale": 1.0, "distribution": "uniform"}}, "kernel_initializer": {"class_name": "VarianceScaling", "config": {"mode": "fan_avg", "seed": null, "scale": 1.0, "distribution": "uniform"}}, "use_bias": true, "bias_regularizer": null, "name": "conv1d_61", "filters": 64, "kernel_regularizer": null, "activity_regularizer": null, "bias_constraint": null, "padding": "same", "strides": [1]}, "inbound_nodes": [[["concatenate_1", 0, 0, {}]]]}, {"class_name": "Conv1D", "name": "conv1d_63", "config": {"dilation_rate": [1], "activation": "linear", "kernel_constraint": null, "kernel_size": [3], "trainable": true, "bias_initializer": {"class_name": "VarianceScaling", "config": {"mode": "fan_avg", "seed": null, "scale": 1.0, "distribution": "uniform"}}, "kernel_initializer": {"class_name": "VarianceScaling", "config": {"mode": "fan_avg", "seed": null, "scale": 1.0, "distribution": "uniform"}}, "use_bias": true, "bias_regularizer": null, "name": "conv1d_63", "filters": 64, "kernel_regularizer": null, "activity_regularizer": null, "bias_constraint": null, "padding": "same", "strides": [1]}, "inbound_nodes": [[["dropout_62", 0, 0, {}]]]}, {"class_name": "Conv1D", "name": "conv1d_66", "config": {"dilation_rate": [1], "activation": "linear", "kernel_constraint": null, "kernel_size": [7], "trainable": true, "bias_initializer": {"class_name": "VarianceScaling", "config": {"mode": "fan_avg", "seed": null, "scale": 1.0, "distribution": "uniform"}}, "kernel_initializer": {"class_name": "VarianceScaling", "config": {"mode": "fan_avg", "seed": null, "scale": 1.0, "distribution": "uniform"}}, "use_bias": true, "bias_regularizer": null, "name": "conv1d_66", "filters": 64, "kernel_regularizer": null, "activity_regularizer": null, "bias_constraint": null, "padding": "same", "strides": [1]}, "inbound_nodes": [[["dropout_65", 0, 0, {}]]]}, {"class_name": "Conv1D", "name": "conv1d_70", "config": {"dilation_rate": [1], "activation": "linear", "kernel_constraint": null, "kernel_size": [11], "trainable": true, "bias_initializer": {"class_name": "VarianceScaling", "config": {"mode": "fan_avg", "seed": null, "scale": 1.0, "distribution": "uniform"}}, "kernel_initializer": {"class_name": "VarianceScaling", "config": {"mode": "fan_avg", "seed": null, "scale": 1.0, "distribution": "uniform"}}, "use_bias": true, "bias_regularizer": null, "name": "conv1d_70", "filters": 64, "kernel_regularizer": null, "activity_regularizer": null, "bias_constraint": null, "padding": "same", "strides": [1]}, "inbound_nodes": [[["dropout_69", 0, 0, {}]]]}, {"class_name": "BatchNormalization", "name": "batch_normalization_61", "config": {"moving_mean_initializer": {"class_name": "Zeros", "config": {}}, "gamma_constraint": null, "epsilon": 0.001, "beta_regularizer": null, "trainable": true, "beta_constraint": null, "center": true, "gamma_initializer": {"class_name": "Ones", "config": {}}, "name": "batch_normalization_61", "beta_initializer": {"class_name": "Zeros", "config": {}}, "moving_variance_initializer": {"class_name": "Ones", "config": {}}, "momentum": 0.99, "axis": -1, "scale": true, "gamma_regularizer": null}, "inbound_nodes": [[["conv1d_61", 0, 0, {}]]]}, {"class_name": "BatchNormalization", "name": "batch_normalization_63", "config": {"moving_mean_initializer": {"class_name": "Zeros", "config": {}}, "gamma_constraint": null, "epsilon": 0.001, "beta_regularizer": null, "trainable": true, "beta_constraint": null, "center": true, "gamma_initializer": {"class_name": "Ones", "config": {}}, "name": "batch_normalization_63", "beta_initializer": {"class_name": "Zeros", "config": {}}, "moving_variance_initializer": {"class_name": "Ones", "config": {}}, "momentum": 0.99, "axis": -1, "scale": true, "gamma_regularizer": null}, "inbound_nodes": [[["conv1d_63", 0, 0, {}]]]}, {"class_name": "BatchNormalization", "name": "batch_normalization_66", "config": {"moving_mean_initializer": {"class_name": "Zeros", "config": {}}, "gamma_constraint": null, "epsilon": 0.001, "beta_regularizer": null, "trainable": true, "beta_constraint": null, "center": true, "gamma_initializer": {"class_name": "Ones", "config": {}}, "name": "batch_normalization_66", "beta_initializer": {"class_name": "Zeros", "config": {}}, "moving_variance_initializer": {"class_name": "Ones", "config": {}}, "momentum": 0.99, "axis": -1, "scale": true, "gamma_regularizer": null}, "inbound_nodes": [[["conv1d_66", 0, 0, {}]]]}, {"class_name": "BatchNormalization", "name": "batch_normalization_70", "config": {"moving_mean_initializer": {"class_name": "Zeros", "config": {}}, "gamma_constraint": null, "epsilon": 0.001, "beta_regularizer": null, "trainable": true, "beta_constraint": null, "center": true, "gamma_initializer": {"class_name": "Ones", "config": {}}, "name": "batch_normalization_70", "beta_initializer": {"class_name": "Zeros", "config": {}}, "moving_variance_initializer": {"class_name": "Ones", "config": {}}, "momentum": 0.99, "axis": -1, "scale": true, "gamma_regularizer": null}, "inbound_nodes": [[["conv1d_70", 0, 0, {}]]]}, {"class_name": "Activation", "name": "activation_61", "config": {"activation": "relu", "name": "activation_61", "trainable": true}, "inbound_nodes": [[["batch_normalization_61", 0, 0, {}]]]}, {"class_name": "Activation", "name": "activation_63", "config": {"activation": "relu", "name": "activation_63", "trainable": true}, "inbound_nodes": [[["batch_normalization_63", 0, 0, {}]]]}, {"class_name": "Activation", "name": "activation_66", "config": {"activation": "relu", "name": "activation_66", "trainable": true}, "inbound_nodes": [[["batch_normalization_66", 0, 0, {}]]]}, {"class_name": "Activation", "name": "activation_70", "config": {"activation": "relu", "name": "activation_70", "trainable": true}, "inbound_nodes": [[["batch_normalization_70", 0, 0, {}]]]}, {"class_name": "Dropout", "name": "dropout_61", "config": {"rate": 0.45, "name": "dropout_61", "trainable": true}, "inbound_nodes": [[["activation_61", 0, 0, {}]]]}, {"class_name": "Dropout", "name": "dropout_63", "config": {"rate": 0.45, "name": "dropout_63", "trainable": true}, "inbound_nodes": [[["activation_63", 0, 0, {}]]]}, {"class_name": "Dropout", "name": "dropout_66", "config": {"rate": 0.45, "name": "dropout_66", "trainable": true}, "inbound_nodes": [[["activation_66", 0, 0, {}]]]}, {"class_name": "Dropout", "name": "dropout_70", "config": {"rate": 0.45, "name": "dropout_70", "trainable": true}, "inbound_nodes": [[["activation_70", 0, 0, {}]]]}, {"class_name": "Concatenate", "name": "concatenate_8", "config": {"name": "concatenate_8", "trainable": true, "axis": -1}, "inbound_nodes": [[["dropout_61", 0, 0, {}], ["dropout_63", 0, 0, {}], ["dropout_66", 0, 0, {}], ["dropout_70", 0, 0, {}]]]}, {"class_name": "Conv1D", "name": "conv1d_77", "config": {"dilation_rate": [1], "activation": "linear", "kernel_constraint": null, "kernel_size": [1], "trainable": true, "bias_initializer": {"class_name": "VarianceScaling", "config": {"mode": "fan_avg", "seed": null, "scale": 1.0, "distribution": "uniform"}}, "kernel_initializer": {"class_name": "VarianceScaling", "config": {"mode": "fan_avg", "seed": null, "scale": 1.0, "distribution": "uniform"}}, "use_bias": true, "bias_regularizer": null, "name": "conv1d_77", "filters": 64, "kernel_regularizer": null, "activity_regularizer": null, "bias_constraint": null, "padding": "same", "strides": [1]}, "inbound_nodes": [[["concatenate_8", 0, 0, {}]]]}, {"class_name": "Conv1D", "name": "conv1d_37", "config": {"dilation_rate": [1], "activation": "linear", "kernel_constraint": null, "kernel_size": [1], "trainable": true, "bias_initializer": {"class_name": "VarianceScaling", "config": {"mode": "fan_avg", "seed": null, "scale": 1.0, "distribution": "uniform"}}, "kernel_initializer": {"class_name": "VarianceScaling", "config": {"mode": "fan_avg", "seed": null, "scale": 1.0, "distribution": "uniform"}}, "use_bias": true, "bias_regularizer": null, "name": "conv1d_37", "filters": 64, "kernel_regularizer": null, "activity_regularizer": null, "bias_constraint": null, "padding": "same", "strides": [1]}, "inbound_nodes": [[["concatenate_1", 0, 0, {}]]]}, {"class_name": "BatchNormalization", "name": "batch_normalization_77", "config": {"moving_mean_initializer": {"class_name": "Zeros", "config": {}}, "gamma_constraint": null, "epsilon": 0.001, "beta_regularizer": null, "trainable": true, "beta_constraint": null, "center": true, "gamma_initializer": {"class_name": "Ones", "config": {}}, "name": "batch_normalization_77", "beta_initializer": {"class_name": "Zeros", "config": {}}, "moving_variance_initializer": {"class_name": "Ones", "config": {}}, "momentum": 0.99, "axis": -1, "scale": true, "gamma_regularizer": null}, "inbound_nodes": [[["conv1d_77", 0, 0, {}]]]}, {"class_name": "BatchNormalization", "name": "batch_normalization_37", "config": {"moving_mean_initializer": {"class_name": "Zeros", "config": {}}, "gamma_constraint": null, "epsilon": 0.001, "beta_regularizer": null, "trainable": true, "beta_constraint": null, "center": true, "gamma_initializer": {"class_name": "Ones", "config": {}}, "name": "batch_normalization_37", "beta_initializer": {"class_name": "Zeros", "config": {}}, "moving_variance_initializer": {"class_name": "Ones", "config": {}}, "momentum": 0.99, "axis": -1, "scale": true, "gamma_regularizer": null}, "inbound_nodes": [[["conv1d_37", 0, 0, {}]]]}, {"class_name": "Activation", "name": "activation_77", "config": {"activation": "relu", "name": "activation_77", "trainable": true}, "inbound_nodes": [[["batch_normalization_77", 0, 0, {}]]]}, {"class_name": "Activation", "name": "activation_37", "config": {"activation": "relu", "name": "activation_37", "trainable": true}, "inbound_nodes": [[["batch_normalization_37", 0, 0, {}]]]}, {"class_name": "Dropout", "name": "dropout_77", "config": {"rate": 0.45, "name": "dropout_77", "trainable": true}, "inbound_nodes": [[["activation_77", 0, 0, {}]]]}, {"class_name": "Dropout", "name": "dropout_37", "config": {"rate": 0.45, "name": "dropout_37", "trainable": true}, "inbound_nodes": [[["activation_37", 0, 0, {}]]]}, {"class_name": "Conv1D", "name": "conv1d_74", "config": {"dilation_rate": [1], "activation": "linear", "kernel_constraint": null, "kernel_size": [1], "trainable": true, "bias_initializer": {"class_name": "VarianceScaling", "config": {"mode": "fan_avg", "seed": null, "scale": 1.0, "distribution": "uniform"}}, "kernel_initializer": {"class_name": "VarianceScaling", "config": {"mode": "fan_avg", "seed": null, "scale": 1.0, "distribution": "uniform"}}, "use_bias": true, "bias_regularizer": null, "name": "conv1d_74", "filters": 64, "kernel_regularizer": null, "activity_regularizer": null, "bias_constraint": null, "padding": "same", "strides": [1]}, "inbound_nodes": [[["concatenate_8", 0, 0, {}]]]}, {"class_name": "Conv1D", "name": "conv1d_78", "config": {"dilation_rate": [1], "activation": "linear", "kernel_constraint": null, "kernel_size": [11], "trainable": true, "bias_initializer": {"class_name": "VarianceScaling", "config": {"mode": "fan_avg", "seed": null, "scale": 1.0, "distribution": "uniform"}}, "kernel_initializer": {"class_name": "VarianceScaling", "config": {"mode": "fan_avg", "seed": null, "scale": 1.0, "distribution": "uniform"}}, "use_bias": true, "bias_regularizer": null, "name": "conv1d_78", "filters": 64, "kernel_regularizer": null, "activity_regularizer": null, "bias_constraint": null, "padding": "same", "strides": [1]}, "inbound_nodes": [[["dropout_77", 0, 0, {}]]]}, {"class_name": "Conv1D", "name": "conv1d_34", "config": {"dilation_rate": [1], "activation": "linear", "kernel_constraint": null, "kernel_size": [1], "trainable": true, "bias_initializer": {"class_name": "VarianceScaling", "config": {"mode": "fan_avg", "seed": null, "scale": 1.0, "distribution": "uniform"}}, "kernel_initializer": {"class_name": "VarianceScaling", "config": {"mode": "fan_avg", "seed": null, "scale": 1.0, "distribution": "uniform"}}, "use_bias": true, "bias_regularizer": null, "name": "conv1d_34", "filters": 64, "kernel_regularizer": null, "activity_regularizer": null, "bias_constraint": null, "padding": "same", "strides": [1]}, "inbound_nodes": [[["concatenate_1", 0, 0, {}]]]}, {"class_name": "Conv1D", "name": "conv1d_38", "config": {"dilation_rate": [1], "activation": "linear", "kernel_constraint": null, "kernel_size": [11], "trainable": true, "bias_initializer": {"class_name": "VarianceScaling", "config": {"mode": "fan_avg", "seed": null, "scale": 1.0, "distribution": "uniform"}}, "kernel_initializer": {"class_name": "VarianceScaling", "config": {"mode": "fan_avg", "seed": null, "scale": 1.0, "distribution": "uniform"}}, "use_bias": true, "bias_regularizer": null, "name": "conv1d_38", "filters": 64, "kernel_regularizer": null, "activity_regularizer": null, "bias_constraint": null, "padding": "same", "strides": [1]}, "inbound_nodes": [[["dropout_37", 0, 0, {}]]]}, {"class_name": "BatchNormalization", "name": "batch_normalization_74", "config": {"moving_mean_initializer": {"class_name": "Zeros", "config": {}}, "gamma_constraint": null, "epsilon": 0.001, "beta_regularizer": null, "trainable": true, "beta_constraint": null, "center": true, "gamma_initializer": {"class_name": "Ones", "config": {}}, "name": "batch_normalization_74", "beta_initializer": {"class_name": "Zeros", "config": {}}, "moving_variance_initializer": {"class_name": "Ones", "config": {}}, "momentum": 0.99, "axis": -1, "scale": true, "gamma_regularizer": null}, "inbound_nodes": [[["conv1d_74", 0, 0, {}]]]}, {"class_name": "BatchNormalization", "name": "batch_normalization_78", "config": {"moving_mean_initializer": {"class_name": "Zeros", "config": {}}, "gamma_constraint": null, "epsilon": 0.001, "beta_regularizer": null, "trainable": true, "beta_constraint": null, "center": true, "gamma_initializer": {"class_name": "Ones", "config": {}}, "name": "batch_normalization_78", "beta_initializer": {"class_name": "Zeros", "config": {}}, "moving_variance_initializer": {"class_name": "Ones", "config": {}}, "momentum": 0.99, "axis": -1, "scale": true, "gamma_regularizer": null}, "inbound_nodes": [[["conv1d_78", 0, 0, {}]]]}, {"class_name": "BatchNormalization", "name": "batch_normalization_34", "config": {"moving_mean_initializer": {"class_name": "Zeros", "config": {}}, "gamma_constraint": null, "epsilon": 0.001, "beta_regularizer": null, "trainable": true, "beta_constraint": null, "center": true, "gamma_initializer": {"class_name": "Ones", "config": {}}, "name": "batch_normalization_34", "beta_initializer": {"class_name": "Zeros", "config": {}}, "moving_variance_initializer": {"class_name": "Ones", "config": {}}, "momentum": 0.99, "axis": -1, "scale": true, "gamma_regularizer": null}, "inbound_nodes": [[["conv1d_34", 0, 0, {}]]]}, {"class_name": "BatchNormalization", "name": "batch_normalization_38", "config": {"moving_mean_initializer": {"class_name": "Zeros", "config": {}}, "gamma_constraint": null, "epsilon": 0.001, "beta_regularizer": null, "trainable": true, "beta_constraint": null, "center": true, "gamma_initializer": {"class_name": "Ones", "config": {}}, "name": "batch_normalization_38", "beta_initializer": {"class_name": "Zeros", "config": {}}, "moving_variance_initializer": {"class_name": "Ones", "config": {}}, "momentum": 0.99, "axis": -1, "scale": true, "gamma_regularizer": null}, "inbound_nodes": [[["conv1d_38", 0, 0, {}]]]}, {"class_name": "Activation", "name": "activation_74", "config": {"activation": "relu", "name": "activation_74", "trainable": true}, "inbound_nodes": [[["batch_normalization_74", 0, 0, {}]]]}, {"class_name": "Activation", "name": "activation_78", "config": {"activation": "relu", "name": "activation_78", "trainable": true}, "inbound_nodes": [[["batch_normalization_78", 0, 0, {}]]]}, {"class_name": "Activation", "name": "activation_34", "config": {"activation": "relu", "name": "activation_34", "trainable": true}, "inbound_nodes": [[["batch_normalization_34", 0, 0, {}]]]}, {"class_name": "Activation", "name": "activation_38", "config": {"activation": "relu", "name": "activation_38", "trainable": true}, "inbound_nodes": [[["batch_normalization_38", 0, 0, {}]]]}, {"class_name": "Dropout", "name": "dropout_74", "config": {"rate": 0.45, "name": "dropout_74", "trainable": true}, "inbound_nodes": [[["activation_74", 0, 0, {}]]]}, {"class_name": "Dropout", "name": "dropout_78", "config": {"rate": 0.45, "name": "dropout_78", "trainable": true}, "inbound_nodes": [[["activation_78", 0, 0, {}]]]}, {"class_name": "Dropout", "name": "dropout_34", "config": {"rate": 0.45, "name": "dropout_34", "trainable": true}, "inbound_nodes": [[["activation_34", 0, 0, {}]]]}, {"class_name": "Dropout", "name": "dropout_38", "config": {"rate": 0.45, "name": "dropout_38", "trainable": true}, "inbound_nodes": [[["activation_38", 0, 0, {}]]]}, {"class_name": "Conv1D", "name": "conv1d_72", "config": {"dilation_rate": [1], "activation": "linear", "kernel_constraint": null, "kernel_size": [1], "trainable": true, "bias_initializer": {"class_name": "VarianceScaling", "config": {"mode": "fan_avg", "seed": null, "scale": 1.0, "distribution": "uniform"}}, "kernel_initializer": {"class_name": "VarianceScaling", "config": {"mode": "fan_avg", "seed": null, "scale": 1.0, "distribution": "uniform"}}, "use_bias": true, "bias_regularizer": null, "name": "conv1d_72", "filters": 64, "kernel_regularizer": null, "activity_regularizer": null, "bias_constraint": null, "padding": "same", "strides": [1]}, "inbound_nodes": [[["concatenate_8", 0, 0, {}]]]}, {"class_name": "Conv1D", "name": "conv1d_75", "config": {"dilation_rate": [1], "activation": "linear", "kernel_constraint": null, "kernel_size": [7], "trainable": true, "bias_initializer": {"class_name": "VarianceScaling", "config": {"mode": "fan_avg", "seed": null, "scale": 1.0, "distribution": "uniform"}}, "kernel_initializer": {"class_name": "VarianceScaling", "config": {"mode": "fan_avg", "seed": null, "scale": 1.0, "distribution": "uniform"}}, "use_bias": true, "bias_regularizer": null, "name": "conv1d_75", "filters": 64, "kernel_regularizer": null, "activity_regularizer": null, "bias_constraint": null, "padding": "same", "strides": [1]}, "inbound_nodes": [[["dropout_74", 0, 0, {}]]]}, {"class_name": "Conv1D", "name": "conv1d_79", "config": {"dilation_rate": [1], "activation": "linear", "kernel_constraint": null, "kernel_size": [11], "trainable": true, "bias_initializer": {"class_name": "VarianceScaling", "config": {"mode": "fan_avg", "seed": null, "scale": 1.0, "distribution": "uniform"}}, "kernel_initializer": {"class_name": "VarianceScaling", "config": {"mode": "fan_avg", "seed": null, "scale": 1.0, "distribution": "uniform"}}, "use_bias": true, "bias_regularizer": null, "name": "conv1d_79", "filters": 64, "kernel_regularizer": null, "activity_regularizer": null, "bias_constraint": null, "padding": "same", "strides": [1]}, "inbound_nodes": [[["dropout_78", 0, 0, {}]]]}, {"class_name": "Conv1D", "name": "conv1d_32", "config": {"dilation_rate": [1], "activation": "linear", "kernel_constraint": null, "kernel_size": [1], "trainable": true, "bias_initializer": {"class_name": "VarianceScaling", "config": {"mode": "fan_avg", "seed": null, "scale": 1.0, "distribution": "uniform"}}, "kernel_initializer": {"class_name": "VarianceScaling", "config": {"mode": "fan_avg", "seed": null, "scale": 1.0, "distribution": "uniform"}}, "use_bias": true, "bias_regularizer": null, "name": "conv1d_32", "filters": 64, "kernel_regularizer": null, "activity_regularizer": null, "bias_constraint": null, "padding": "same", "strides": [1]}, "inbound_nodes": [[["concatenate_1", 0, 0, {}]]]}, {"class_name": "Conv1D", "name": "conv1d_35", "config": {"dilation_rate": [1], "activation": "linear", "kernel_constraint": null, "kernel_size": [7], "trainable": true, "bias_initializer": {"class_name": "VarianceScaling", "config": {"mode": "fan_avg", "seed": null, "scale": 1.0, "distribution": "uniform"}}, "kernel_initializer": {"class_name": "VarianceScaling", "config": {"mode": "fan_avg", "seed": null, "scale": 1.0, "distribution": "uniform"}}, "use_bias": true, "bias_regularizer": null, "name": "conv1d_35", "filters": 64, "kernel_regularizer": null, "activity_regularizer": null, "bias_constraint": null, "padding": "same", "strides": [1]}, "inbound_nodes": [[["dropout_34", 0, 0, {}]]]}, {"class_name": "Conv1D", "name": "conv1d_39", "config": {"dilation_rate": [1], "activation": "linear", "kernel_constraint": null, "kernel_size": [11], "trainable": true, "bias_initializer": {"class_name": "VarianceScaling", "config": {"mode": "fan_avg", "seed": null, "scale": 1.0, "distribution": "uniform"}}, "kernel_initializer": {"class_name": "VarianceScaling", "config": {"mode": "fan_avg", "seed": null, "scale": 1.0, "distribution": "uniform"}}, "use_bias": true, "bias_regularizer": null, "name": "conv1d_39", "filters": 64, "kernel_regularizer": null, "activity_regularizer": null, "bias_constraint": null, "padding": "same", "strides": [1]}, "inbound_nodes": [[["dropout_38", 0, 0, {}]]]}, {"class_name": "BatchNormalization", "name": "batch_normalization_72", "config": {"moving_mean_initializer": {"class_name": "Zeros", "config": {}}, "gamma_constraint": null, "epsilon": 0.001, "beta_regularizer": null, "trainable": true, "beta_constraint": null, "center": true, "gamma_initializer": {"class_name": "Ones", "config": {}}, "name": "batch_normalization_72", "beta_initializer": {"class_name": "Zeros", "config": {}}, "moving_variance_initializer": {"class_name": "Ones", "config": {}}, "momentum": 0.99, "axis": -1, "scale": true, "gamma_regularizer": null}, "inbound_nodes": [[["conv1d_72", 0, 0, {}]]]}, {"class_name": "BatchNormalization", "name": "batch_normalization_75", "config": {"moving_mean_initializer": {"class_name": "Zeros", "config": {}}, "gamma_constraint": null, "epsilon": 0.001, "beta_regularizer": null, "trainable": true, "beta_constraint": null, "center": true, "gamma_initializer": {"class_name": "Ones", "config": {}}, "name": "batch_normalization_75", "beta_initializer": {"class_name": "Zeros", "config": {}}, "moving_variance_initializer": {"class_name": "Ones", "config": {}}, "momentum": 0.99, "axis": -1, "scale": true, "gamma_regularizer": null}, "inbound_nodes": [[["conv1d_75", 0, 0, {}]]]}, {"class_name": "BatchNormalization", "name": "batch_normalization_79", "config": {"moving_mean_initializer": {"class_name": "Zeros", "config": {}}, "gamma_constraint": null, "epsilon": 0.001, "beta_regularizer": null, "trainable": true, "beta_constraint": null, "center": true, "gamma_initializer": {"class_name": "Ones", "config": {}}, "name": "batch_normalization_79", "beta_initializer": {"class_name": "Zeros", "config": {}}, "moving_variance_initializer": {"class_name": "Ones", "config": {}}, "momentum": 0.99, "axis": -1, "scale": true, "gamma_regularizer": null}, "inbound_nodes": [[["conv1d_79", 0, 0, {}]]]}, {"class_name": "BatchNormalization", "name": "batch_normalization_32", "config": {"moving_mean_initializer": {"class_name": "Zeros", "config": {}}, "gamma_constraint": null, "epsilon": 0.001, "beta_regularizer": null, "trainable": true, "beta_constraint": null, "center": true, "gamma_initializer": {"class_name": "Ones", "config": {}}, "name": "batch_normalization_32", "beta_initializer": {"class_name": "Zeros", "config": {}}, "moving_variance_initializer": {"class_name": "Ones", "config": {}}, "momentum": 0.99, "axis": -1, "scale": true, "gamma_regularizer": null}, "inbound_nodes": [[["conv1d_32", 0, 0, {}]]]}, {"class_name": "BatchNormalization", "name": "batch_normalization_35", "config": {"moving_mean_initializer": {"class_name": "Zeros", "config": {}}, "gamma_constraint": null, "epsilon": 0.001, "beta_regularizer": null, "trainable": true, "beta_constraint": null, "center": true, "gamma_initializer": {"class_name": "Ones", "config": {}}, "name": "batch_normalization_35", "beta_initializer": {"class_name": "Zeros", "config": {}}, "moving_variance_initializer": {"class_name": "Ones", "config": {}}, "momentum": 0.99, "axis": -1, "scale": true, "gamma_regularizer": null}, "inbound_nodes": [[["conv1d_35", 0, 0, {}]]]}, {"class_name": "BatchNormalization", "name": "batch_normalization_39", "config": {"moving_mean_initializer": {"class_name": "Zeros", "config": {}}, "gamma_constraint": null, "epsilon": 0.001, "beta_regularizer": null, "trainable": true, "beta_constraint": null, "center": true, "gamma_initializer": {"class_name": "Ones", "config": {}}, "name": "batch_normalization_39", "beta_initializer": {"class_name": "Zeros", "config": {}}, "moving_variance_initializer": {"class_name": "Ones", "config": {}}, "momentum": 0.99, "axis": -1, "scale": true, "gamma_regularizer": null}, "inbound_nodes": [[["conv1d_39", 0, 0, {}]]]}, {"class_name": "Activation", "name": "activation_72", "config": {"activation": "relu", "name": "activation_72", "trainable": true}, "inbound_nodes": [[["batch_normalization_72", 0, 0, {}]]]}, {"class_name": "Activation", "name": "activation_75", "config": {"activation": "relu", "name": "activation_75", "trainable": true}, "inbound_nodes": [[["batch_normalization_75", 0, 0, {}]]]}, {"class_name": "Activation", "name": "activation_79", "config": {"activation": "relu", "name": "activation_79", "trainable": true}, "inbound_nodes": [[["batch_normalization_79", 0, 0, {}]]]}, {"class_name": "Activation", "name": "activation_32", "config": {"activation": "relu", "name": "activation_32", "trainable": true}, "inbound_nodes": [[["batch_normalization_32", 0, 0, {}]]]}, {"class_name": "Activation", "name": "activation_35", "config": {"activation": "relu", "name": "activation_35", "trainable": true}, "inbound_nodes": [[["batch_normalization_35", 0, 0, {}]]]}, {"class_name": "Activation", "name": "activation_39", "config": {"activation": "relu", "name": "activation_39", "trainable": true}, "inbound_nodes": [[["batch_normalization_39", 0, 0, {}]]]}, {"class_name": "Dropout", "name": "dropout_72", "config": {"rate": 0.45, "name": "dropout_72", "trainable": true}, "inbound_nodes": [[["activation_72", 0, 0, {}]]]}, {"class_name": "Dropout", "name": "dropout_75", "config": {"rate": 0.45, "name": "dropout_75", "trainable": true}, "inbound_nodes": [[["activation_75", 0, 0, {}]]]}, {"class_name": "Dropout", "name": "dropout_79", "config": {"rate": 0.45, "name": "dropout_79", "trainable": true}, "inbound_nodes": [[["activation_79", 0, 0, {}]]]}, {"class_name": "Dropout", "name": "dropout_32", "config": {"rate": 0.45, "name": "dropout_32", "trainable": true}, "inbound_nodes": [[["activation_32", 0, 0, {}]]]}, {"class_name": "Dropout", "name": "dropout_35", "config": {"rate": 0.45, "name": "dropout_35", "trainable": true}, "inbound_nodes": [[["activation_35", 0, 0, {}]]]}, {"class_name": "Dropout", "name": "dropout_39", "config": {"rate": 0.45, "name": "dropout_39", "trainable": true}, "inbound_nodes": [[["activation_39", 0, 0, {}]]]}, {"class_name": "Conv1D", "name": "conv1d_71", "config": {"dilation_rate": [1], "activation": "linear", "kernel_constraint": null, "kernel_size": [1], "trainable": true, "bias_initializer": {"class_name": "VarianceScaling", "config": {"mode": "fan_avg", "seed": null, "scale": 1.0, "distribution": "uniform"}}, "kernel_initializer": {"class_name": "VarianceScaling", "config": {"mode": "fan_avg", "seed": null, "scale": 1.0, "distribution": "uniform"}}, "use_bias": true, "bias_regularizer": null, "name": "conv1d_71", "filters": 64, "kernel_regularizer": null, "activity_regularizer": null, "bias_constraint": null, "padding": "same", "strides": [1]}, "inbound_nodes": [[["concatenate_8", 0, 0, {}]]]}, {"class_name": "Conv1D", "name": "conv1d_73", "config": {"dilation_rate": [1], "activation": "linear", "kernel_constraint": null, "kernel_size": [3], "trainable": true, "bias_initializer": {"class_name": "VarianceScaling", "config": {"mode": "fan_avg", "seed": null, "scale": 1.0, "distribution": "uniform"}}, "kernel_initializer": {"class_name": "VarianceScaling", "config": {"mode": "fan_avg", "seed": null, "scale": 1.0, "distribution": "uniform"}}, "use_bias": true, "bias_regularizer": null, "name": "conv1d_73", "filters": 64, "kernel_regularizer": null, "activity_regularizer": null, "bias_constraint": null, "padding": "same", "strides": [1]}, "inbound_nodes": [[["dropout_72", 0, 0, {}]]]}, {"class_name": "Conv1D", "name": "conv1d_76", "config": {"dilation_rate": [1], "activation": "linear", "kernel_constraint": null, "kernel_size": [7], "trainable": true, "bias_initializer": {"class_name": "VarianceScaling", "config": {"mode": "fan_avg", "seed": null, "scale": 1.0, "distribution": "uniform"}}, "kernel_initializer": {"class_name": "VarianceScaling", "config": {"mode": "fan_avg", "seed": null, "scale": 1.0, "distribution": "uniform"}}, "use_bias": true, "bias_regularizer": null, "name": "conv1d_76", "filters": 64, "kernel_regularizer": null, "activity_regularizer": null, "bias_constraint": null, "padding": "same", "strides": [1]}, "inbound_nodes": [[["dropout_75", 0, 0, {}]]]}, {"class_name": "Conv1D", "name": "conv1d_80", "config": {"dilation_rate": [1], "activation": "linear", "kernel_constraint": null, "kernel_size": [11], "trainable": true, "bias_initializer": {"class_name": "VarianceScaling", "config": {"mode": "fan_avg", "seed": null, "scale": 1.0, "distribution": "uniform"}}, "kernel_initializer": {"class_name": "VarianceScaling", "config": {"mode": "fan_avg", "seed": null, "scale": 1.0, "distribution": "uniform"}}, "use_bias": true, "bias_regularizer": null, "name": "conv1d_80", "filters": 64, "kernel_regularizer": null, "activity_regularizer": null, "bias_constraint": null, "padding": "same", "strides": [1]}, "inbound_nodes": [[["dropout_79", 0, 0, {}]]]}, {"class_name": "Conv1D", "name": "conv1d_31", "config": {"dilation_rate": [1], "activation": "linear", "kernel_constraint": null, "kernel_size": [1], "trainable": true, "bias_initializer": {"class_name": "VarianceScaling", "config": {"mode": "fan_avg", "seed": null, "scale": 1.0, "distribution": "uniform"}}, "kernel_initializer": {"class_name": "VarianceScaling", "config": {"mode": "fan_avg", "seed": null, "scale": 1.0, "distribution": "uniform"}}, "use_bias": true, "bias_regularizer": null, "name": "conv1d_31", "filters": 64, "kernel_regularizer": null, "activity_regularizer": null, "bias_constraint": null, "padding": "same", "strides": [1]}, "inbound_nodes": [[["concatenate_1", 0, 0, {}]]]}, {"class_name": "Conv1D", "name": "conv1d_33", "config": {"dilation_rate": [1], "activation": "linear", "kernel_constraint": null, "kernel_size": [3], "trainable": true, "bias_initializer": {"class_name": "VarianceScaling", "config": {"mode": "fan_avg", "seed": null, "scale": 1.0, "distribution": "uniform"}}, "kernel_initializer": {"class_name": "VarianceScaling", "config": {"mode": "fan_avg", "seed": null, "scale": 1.0, "distribution": "uniform"}}, "use_bias": true, "bias_regularizer": null, "name": "conv1d_33", "filters": 64, "kernel_regularizer": null, "activity_regularizer": null, "bias_constraint": null, "padding": "same", "strides": [1]}, "inbound_nodes": [[["dropout_32", 0, 0, {}]]]}, {"class_name": "Conv1D", "name": "conv1d_36", "config": {"dilation_rate": [1], "activation": "linear", "kernel_constraint": null, "kernel_size": [7], "trainable": true, "bias_initializer": {"class_name": "VarianceScaling", "config": {"mode": "fan_avg", "seed": null, "scale": 1.0, "distribution": "uniform"}}, "kernel_initializer": {"class_name": "VarianceScaling", "config": {"mode": "fan_avg", "seed": null, "scale": 1.0, "distribution": "uniform"}}, "use_bias": true, "bias_regularizer": null, "name": "conv1d_36", "filters": 64, "kernel_regularizer": null, "activity_regularizer": null, "bias_constraint": null, "padding": "same", "strides": [1]}, "inbound_nodes": [[["dropout_35", 0, 0, {}]]]}, {"class_name": "Conv1D", "name": "conv1d_40", "config": {"dilation_rate": [1], "activation": "linear", "kernel_constraint": null, "kernel_size": [11], "trainable": true, "bias_initializer": {"class_name": "VarianceScaling", "config": {"mode": "fan_avg", "seed": null, "scale": 1.0, "distribution": "uniform"}}, "kernel_initializer": {"class_name": "VarianceScaling", "config": {"mode": "fan_avg", "seed": null, "scale": 1.0, "distribution": "uniform"}}, "use_bias": true, "bias_regularizer": null, "name": "conv1d_40", "filters": 64, "kernel_regularizer": null, "activity_regularizer": null, "bias_constraint": null, "padding": "same", "strides": [1]}, "inbound_nodes": [[["dropout_39", 0, 0, {}]]]}, {"class_name": "BatchNormalization", "name": "batch_normalization_71", "config": {"moving_mean_initializer": {"class_name": "Zeros", "config": {}}, "gamma_constraint": null, "epsilon": 0.001, "beta_regularizer": null, "trainable": true, "beta_constraint": null, "center": true, "gamma_initializer": {"class_name": "Ones", "config": {}}, "name": "batch_normalization_71", "beta_initializer": {"class_name": "Zeros", "config": {}}, "moving_variance_initializer": {"class_name": "Ones", "config": {}}, "momentum": 0.99, "axis": -1, "scale": true, "gamma_regularizer": null}, "inbound_nodes": [[["conv1d_71", 0, 0, {}]]]}, {"class_name": "BatchNormalization", "name": "batch_normalization_73", "config": {"moving_mean_initializer": {"class_name": "Zeros", "config": {}}, "gamma_constraint": null, "epsilon": 0.001, "beta_regularizer": null, "trainable": true, "beta_constraint": null, "center": true, "gamma_initializer": {"class_name": "Ones", "config": {}}, "name": "batch_normalization_73", "beta_initializer": {"class_name": "Zeros", "config": {}}, "moving_variance_initializer": {"class_name": "Ones", "config": {}}, "momentum": 0.99, "axis": -1, "scale": true, "gamma_regularizer": null}, "inbound_nodes": [[["conv1d_73", 0, 0, {}]]]}, {"class_name": "BatchNormalization", "name": "batch_normalization_76", "config": {"moving_mean_initializer": {"class_name": "Zeros", "config": {}}, "gamma_constraint": null, "epsilon": 0.001, "beta_regularizer": null, "trainable": true, "beta_constraint": null, "center": true, "gamma_initializer": {"class_name": "Ones", "config": {}}, "name": "batch_normalization_76", "beta_initializer": {"class_name": "Zeros", "config": {}}, "moving_variance_initializer": {"class_name": "Ones", "config": {}}, "momentum": 0.99, "axis": -1, "scale": true, "gamma_regularizer": null}, "inbound_nodes": [[["conv1d_76", 0, 0, {}]]]}, {"class_name": "BatchNormalization", "name": "batch_normalization_80", "config": {"moving_mean_initializer": {"class_name": "Zeros", "config": {}}, "gamma_constraint": null, "epsilon": 0.001, "beta_regularizer": null, "trainable": true, "beta_constraint": null, "center": true, "gamma_initializer": {"class_name": "Ones", "config": {}}, "name": "batch_normalization_80", "beta_initializer": {"class_name": "Zeros", "config": {}}, "moving_variance_initializer": {"class_name": "Ones", "config": {}}, "momentum": 0.99, "axis": -1, "scale": true, "gamma_regularizer": null}, "inbound_nodes": [[["conv1d_80", 0, 0, {}]]]}, {"class_name": "BatchNormalization", "name": "batch_normalization_31", "config": {"moving_mean_initializer": {"class_name": "Zeros", "config": {}}, "gamma_constraint": null, "epsilon": 0.001, "beta_regularizer": null, "trainable": true, "beta_constraint": null, "center": true, "gamma_initializer": {"class_name": "Ones", "config": {}}, "name": "batch_normalization_31", "beta_initializer": {"class_name": "Zeros", "config": {}}, "moving_variance_initializer": {"class_name": "Ones", "config": {}}, "momentum": 0.99, "axis": -1, "scale": true, "gamma_regularizer": null}, "inbound_nodes": [[["conv1d_31", 0, 0, {}]]]}, {"class_name": "BatchNormalization", "name": "batch_normalization_33", "config": {"moving_mean_initializer": {"class_name": "Zeros", "config": {}}, "gamma_constraint": null, "epsilon": 0.001, "beta_regularizer": null, "trainable": true, "beta_constraint": null, "center": true, "gamma_initializer": {"class_name": "Ones", "config": {}}, "name": "batch_normalization_33", "beta_initializer": {"class_name": "Zeros", "config": {}}, "moving_variance_initializer": {"class_name": "Ones", "config": {}}, "momentum": 0.99, "axis": -1, "scale": true, "gamma_regularizer": null}, "inbound_nodes": [[["conv1d_33", 0, 0, {}]]]}, {"class_name": "BatchNormalization", "name": "batch_normalization_36", "config": {"moving_mean_initializer": {"class_name": "Zeros", "config": {}}, "gamma_constraint": null, "epsilon": 0.001, "beta_regularizer": null, "trainable": true, "beta_constraint": null, "center": true, "gamma_initializer": {"class_name": "Ones", "config": {}}, "name": "batch_normalization_36", "beta_initializer": {"class_name": "Zeros", "config": {}}, "moving_variance_initializer": {"class_name": "Ones", "config": {}}, "momentum": 0.99, "axis": -1, "scale": true, "gamma_regularizer": null}, "inbound_nodes": [[["conv1d_36", 0, 0, {}]]]}, {"class_name": "BatchNormalization", "name": "batch_normalization_40", "config": {"moving_mean_initializer": {"class_name": "Zeros", "config": {}}, "gamma_constraint": null, "epsilon": 0.001, "beta_regularizer": null, "trainable": true, "beta_constraint": null, "center": true, "gamma_initializer": {"class_name": "Ones", "config": {}}, "name": "batch_normalization_40", "beta_initializer": {"class_name": "Zeros", "config": {}}, "moving_variance_initializer": {"class_name": "Ones", "config": {}}, "momentum": 0.99, "axis": -1, "scale": true, "gamma_regularizer": null}, "inbound_nodes": [[["conv1d_40", 0, 0, {}]]]}, {"class_name": "Activation", "name": "activation_71", "config": {"activation": "relu", "name": "activation_71", "trainable": true}, "inbound_nodes": [[["batch_normalization_71", 0, 0, {}]]]}, {"class_name": "Activation", "name": "activation_73", "config": {"activation": "relu", "name": "activation_73", "trainable": true}, "inbound_nodes": [[["batch_normalization_73", 0, 0, {}]]]}, {"class_name": "Activation", "name": "activation_76", "config": {"activation": "relu", "name": "activation_76", "trainable": true}, "inbound_nodes": [[["batch_normalization_76", 0, 0, {}]]]}, {"class_name": "Activation", "name": "activation_80", "config": {"activation": "relu", "name": "activation_80", "trainable": true}, "inbound_nodes": [[["batch_normalization_80", 0, 0, {}]]]}, {"class_name": "Activation", "name": "activation_31", "config": {"activation": "relu", "name": "activation_31", "trainable": true}, "inbound_nodes": [[["batch_normalization_31", 0, 0, {}]]]}, {"class_name": "Activation", "name": "activation_33", "config": {"activation": "relu", "name": "activation_33", "trainable": true}, "inbound_nodes": [[["batch_normalization_33", 0, 0, {}]]]}, {"class_name": "Activation", "name": "activation_36", "config": {"activation": "relu", "name": "activation_36", "trainable": true}, "inbound_nodes": [[["batch_normalization_36", 0, 0, {}]]]}, {"class_name": "Activation", "name": "activation_40", "config": {"activation": "relu", "name": "activation_40", "trainable": true}, "inbound_nodes": [[["batch_normalization_40", 0, 0, {}]]]}, {"class_name": "Dropout", "name": "dropout_71", "config": {"rate": 0.45, "name": "dropout_71", "trainable": true}, "inbound_nodes": [[["activation_71", 0, 0, {}]]]}, {"class_name": "Dropout", "name": "dropout_73", "config": {"rate": 0.45, "name": "dropout_73", "trainable": true}, "inbound_nodes": [[["activation_73", 0, 0, {}]]]}, {"class_name": "Dropout", "name": "dropout_76", "config": {"rate": 0.45, "name": "dropout_76", "trainable": true}, "inbound_nodes": [[["activation_76", 0, 0, {}]]]}, {"class_name": "Dropout", "name": "dropout_80", "config": {"rate": 0.45, "name": "dropout_80", "trainable": true}, "inbound_nodes": [[["activation_80", 0, 0, {}]]]}, {"class_name": "Dropout", "name": "dropout_31", "config": {"rate": 0.45, "name": "dropout_31", "trainable": true}, "inbound_nodes": [[["activation_31", 0, 0, {}]]]}, {"class_name": "Dropout", "name": "dropout_33", "config": {"rate": 0.45, "name": "dropout_33", "trainable": true}, "inbound_nodes": [[["activation_33", 0, 0, {}]]]}, {"class_name": "Dropout", "name": "dropout_36", "config": {"rate": 0.45, "name": "dropout_36", "trainable": true}, "inbound_nodes": [[["activation_36", 0, 0, {}]]]}, {"class_name": "Dropout", "name": "dropout_40", "config": {"rate": 0.45, "name": "dropout_40", "trainable": true}, "inbound_nodes": [[["activation_40", 0, 0, {}]]]}, {"class_name": "Concatenate", "name": "concatenate_9", "config": {"name": "concatenate_9", "trainable": true, "axis": -1}, "inbound_nodes": [[["dropout_71", 0, 0, {}], ["dropout_73", 0, 0, {}], ["dropout_76", 0, 0, {}], ["dropout_80", 0, 0, {}]]]}, {"class_name": "Concatenate", "name": "concatenate_5", "config": {"name": "concatenate_5", "trainable": true, "axis": -1}, "inbound_nodes": [[["dropout_31", 0, 0, {}], ["dropout_33", 0, 0, {}], ["dropout_36", 0, 0, {}], ["dropout_40", 0, 0, {}]]]}, {"class_name": "Conv1D", "name": "conv1d_87", "config": {"dilation_rate": [1], "activation": "linear", "kernel_constraint": null, "kernel_size": [1], "trainable": true, "bias_initializer": {"class_name": "VarianceScaling", "config": {"mode": "fan_avg", "seed": null, "scale": 1.0, "distribution": "uniform"}}, "kernel_initializer": {"class_name": "VarianceScaling", "config": {"mode": "fan_avg", "seed": null, "scale": 1.0, "distribution": "uniform"}}, "use_bias": true, "bias_regularizer": null, "name": "conv1d_87", "filters": 64, "kernel_regularizer": null, "activity_regularizer": null, "bias_constraint": null, "padding": "same", "strides": [1]}, "inbound_nodes": [[["concatenate_9", 0, 0, {}]]]}, {"class_name": "Conv1D", "name": "conv1d_47", "config": {"dilation_rate": [1], "activation": "linear", "kernel_constraint": null, "kernel_size": [1], "trainable": true, "bias_initializer": {"class_name": "VarianceScaling", "config": {"mode": "fan_avg", "seed": null, "scale": 1.0, "distribution": "uniform"}}, "kernel_initializer": {"class_name": "VarianceScaling", "config": {"mode": "fan_avg", "seed": null, "scale": 1.0, "distribution": "uniform"}}, "use_bias": true, "bias_regularizer": null, "name": "conv1d_47", "filters": 64, "kernel_regularizer": null, "activity_regularizer": null, "bias_constraint": null, "padding": "same", "strides": [1]}, "inbound_nodes": [[["concatenate_5", 0, 0, {}]]]}, {"class_name": "Conv1D", "name": "conv1d_17", "config": {"dilation_rate": [1], "activation": "linear", "kernel_constraint": null, "kernel_size": [1], "trainable": true, "bias_initializer": {"class_name": "VarianceScaling", "config": {"mode": "fan_avg", "seed": null, "scale": 1.0, "distribution": "uniform"}}, "kernel_initializer": {"class_name": "VarianceScaling", "config": {"mode": "fan_avg", "seed": null, "scale": 1.0, "distribution": "uniform"}}, "use_bias": true, "bias_regularizer": null, "name": "conv1d_17", "filters": 64, "kernel_regularizer": null, "activity_regularizer": null, "bias_constraint": null, "padding": "same", "strides": [1]}, "inbound_nodes": [[["concatenate_1", 0, 0, {}]]]}, {"class_name": "BatchNormalization", "name": "batch_normalization_87", "config": {"moving_mean_initializer": {"class_name": "Zeros", "config": {}}, "gamma_constraint": null, "epsilon": 0.001, "beta_regularizer": null, "trainable": true, "beta_constraint": null, "center": true, "gamma_initializer": {"class_name": "Ones", "config": {}}, "name": "batch_normalization_87", "beta_initializer": {"class_name": "Zeros", "config": {}}, "moving_variance_initializer": {"class_name": "Ones", "config": {}}, "momentum": 0.99, "axis": -1, "scale": true, "gamma_regularizer": null}, "inbound_nodes": [[["conv1d_87", 0, 0, {}]]]}, {"class_name": "BatchNormalization", "name": "batch_normalization_47", "config": {"moving_mean_initializer": {"class_name": "Zeros", "config": {}}, "gamma_constraint": null, "epsilon": 0.001, "beta_regularizer": null, "trainable": true, "beta_constraint": null, "center": true, "gamma_initializer": {"class_name": "Ones", "config": {}}, "name": "batch_normalization_47", "beta_initializer": {"class_name": "Zeros", "config": {}}, "moving_variance_initializer": {"class_name": "Ones", "config": {}}, "momentum": 0.99, "axis": -1, "scale": true, "gamma_regularizer": null}, "inbound_nodes": [[["conv1d_47", 0, 0, {}]]]}, {"class_name": "BatchNormalization", "name": "batch_normalization_17", "config": {"moving_mean_initializer": {"class_name": "Zeros", "config": {}}, "gamma_constraint": null, "epsilon": 0.001, "beta_regularizer": null, "trainable": true, "beta_constraint": null, "center": true, "gamma_initializer": {"class_name": "Ones", "config": {}}, "name": "batch_normalization_17", "beta_initializer": {"class_name": "Zeros", "config": {}}, "moving_variance_initializer": {"class_name": "Ones", "config": {}}, "momentum": 0.99, "axis": -1, "scale": true, "gamma_regularizer": null}, "inbound_nodes": [[["conv1d_17", 0, 0, {}]]]}, {"class_name": "Activation", "name": "activation_87", "config": {"activation": "relu", "name": "activation_87", "trainable": true}, "inbound_nodes": [[["batch_normalization_87", 0, 0, {}]]]}, {"class_name": "Activation", "name": "activation_47", "config": {"activation": "relu", "name": "activation_47", "trainable": true}, "inbound_nodes": [[["batch_normalization_47", 0, 0, {}]]]}, {"class_name": "Activation", "name": "activation_17", "config": {"activation": "relu", "name": "activation_17", "trainable": true}, "inbound_nodes": [[["batch_normalization_17", 0, 0, {}]]]}, {"class_name": "Dropout", "name": "dropout_87", "config": {"rate": 0.45, "name": "dropout_87", "trainable": true}, "inbound_nodes": [[["activation_87", 0, 0, {}]]]}, {"class_name": "Dropout", "name": "dropout_47", "config": {"rate": 0.45, "name": "dropout_47", "trainable": true}, "inbound_nodes": [[["activation_47", 0, 0, {}]]]}, {"class_name": "Dropout", "name": "dropout_17", "config": {"rate": 0.45, "name": "dropout_17", "trainable": true}, "inbound_nodes": [[["activation_17", 0, 0, {}]]]}, {"class_name": "Conv1D", "name": "conv1d_84", "config": {"dilation_rate": [1], "activation": "linear", "kernel_constraint": null, "kernel_size": [1], "trainable": true, "bias_initializer": {"class_name": "VarianceScaling", "config": {"mode": "fan_avg", "seed": null, "scale": 1.0, "distribution": "uniform"}}, "kernel_initializer": {"class_name": "VarianceScaling", "config": {"mode": "fan_avg", "seed": null, "scale": 1.0, "distribution": "uniform"}}, "use_bias": true, "bias_regularizer": null, "name": "conv1d_84", "filters": 64, "kernel_regularizer": null, "activity_regularizer": null, "bias_constraint": null, "padding": "same", "strides": [1]}, "inbound_nodes": [[["concatenate_9", 0, 0, {}]]]}, {"class_name": "Conv1D", "name": "conv1d_88", "config": {"dilation_rate": [1], "activation": "linear", "kernel_constraint": null, "kernel_size": [11], "trainable": true, "bias_initializer": {"class_name": "VarianceScaling", "config": {"mode": "fan_avg", "seed": null, "scale": 1.0, "distribution": "uniform"}}, "kernel_initializer": {"class_name": "VarianceScaling", "config": {"mode": "fan_avg", "seed": null, "scale": 1.0, "distribution": "uniform"}}, "use_bias": true, "bias_regularizer": null, "name": "conv1d_88", "filters": 64, "kernel_regularizer": null, "activity_regularizer": null, "bias_constraint": null, "padding": "same", "strides": [1]}, "inbound_nodes": [[["dropout_87", 0, 0, {}]]]}, {"class_name": "Conv1D", "name": "conv1d_44", "config": {"dilation_rate": [1], "activation": "linear", "kernel_constraint": null, "kernel_size": [1], "trainable": true, "bias_initializer": {"class_name": "VarianceScaling", "config": {"mode": "fan_avg", "seed": null, "scale": 1.0, "distribution": "uniform"}}, "kernel_initializer": {"class_name": "VarianceScaling", "config": {"mode": "fan_avg", "seed": null, "scale": 1.0, "distribution": "uniform"}}, "use_bias": true, "bias_regularizer": null, "name": "conv1d_44", "filters": 64, "kernel_regularizer": null, "activity_regularizer": null, "bias_constraint": null, "padding": "same", "strides": [1]}, "inbound_nodes": [[["concatenate_5", 0, 0, {}]]]}, {"class_name": "Conv1D", "name": "conv1d_48", "config": {"dilation_rate": [1], "activation": "linear", "kernel_constraint": null, "kernel_size": [11], "trainable": true, "bias_initializer": {"class_name": "VarianceScaling", "config": {"mode": "fan_avg", "seed": null, "scale": 1.0, "distribution": "uniform"}}, "kernel_initializer": {"class_name": "VarianceScaling", "config": {"mode": "fan_avg", "seed": null, "scale": 1.0, "distribution": "uniform"}}, "use_bias": true, "bias_regularizer": null, "name": "conv1d_48", "filters": 64, "kernel_regularizer": null, "activity_regularizer": null, "bias_constraint": null, "padding": "same", "strides": [1]}, "inbound_nodes": [[["dropout_47", 0, 0, {}]]]}, {"class_name": "Conv1D", "name": "conv1d_14", "config": {"dilation_rate": [1], "activation": "linear", "kernel_constraint": null, "kernel_size": [1], "trainable": true, "bias_initializer": {"class_name": "VarianceScaling", "config": {"mode": "fan_avg", "seed": null, "scale": 1.0, "distribution": "uniform"}}, "kernel_initializer": {"class_name": "VarianceScaling", "config": {"mode": "fan_avg", "seed": null, "scale": 1.0, "distribution": "uniform"}}, "use_bias": true, "bias_regularizer": null, "name": "conv1d_14", "filters": 64, "kernel_regularizer": null, "activity_regularizer": null, "bias_constraint": null, "padding": "same", "strides": [1]}, "inbound_nodes": [[["concatenate_1", 0, 0, {}]]]}, {"class_name": "Conv1D", "name": "conv1d_18", "config": {"dilation_rate": [1], "activation": "linear", "kernel_constraint": null, "kernel_size": [11], "trainable": true, "bias_initializer": {"class_name": "VarianceScaling", "config": {"mode": "fan_avg", "seed": null, "scale": 1.0, "distribution": "uniform"}}, "kernel_initializer": {"class_name": "VarianceScaling", "config": {"mode": "fan_avg", "seed": null, "scale": 1.0, "distribution": "uniform"}}, "use_bias": true, "bias_regularizer": null, "name": "conv1d_18", "filters": 64, "kernel_regularizer": null, "activity_regularizer": null, "bias_constraint": null, "padding": "same", "strides": [1]}, "inbound_nodes": [[["dropout_17", 0, 0, {}]]]}, {"class_name": "BatchNormalization", "name": "batch_normalization_84", "config": {"moving_mean_initializer": {"class_name": "Zeros", "config": {}}, "gamma_constraint": null, "epsilon": 0.001, "beta_regularizer": null, "trainable": true, "beta_constraint": null, "center": true, "gamma_initializer": {"class_name": "Ones", "config": {}}, "name": "batch_normalization_84", "beta_initializer": {"class_name": "Zeros", "config": {}}, "moving_variance_initializer": {"class_name": "Ones", "config": {}}, "momentum": 0.99, "axis": -1, "scale": true, "gamma_regularizer": null}, "inbound_nodes": [[["conv1d_84", 0, 0, {}]]]}, {"class_name": "BatchNormalization", "name": "batch_normalization_88", "config": {"moving_mean_initializer": {"class_name": "Zeros", "config": {}}, "gamma_constraint": null, "epsilon": 0.001, "beta_regularizer": null, "trainable": true, "beta_constraint": null, "center": true, "gamma_initializer": {"class_name": "Ones", "config": {}}, "name": "batch_normalization_88", "beta_initializer": {"class_name": "Zeros", "config": {}}, "moving_variance_initializer": {"class_name": "Ones", "config": {}}, "momentum": 0.99, "axis": -1, "scale": true, "gamma_regularizer": null}, "inbound_nodes": [[["conv1d_88", 0, 0, {}]]]}, {"class_name": "BatchNormalization", "name": "batch_normalization_44", "config": {"moving_mean_initializer": {"class_name": "Zeros", "config": {}}, "gamma_constraint": null, "epsilon": 0.001, "beta_regularizer": null, "trainable": true, "beta_constraint": null, "center": true, "gamma_initializer": {"class_name": "Ones", "config": {}}, "name": "batch_normalization_44", "beta_initializer": {"class_name": "Zeros", "config": {}}, "moving_variance_initializer": {"class_name": "Ones", "config": {}}, "momentum": 0.99, "axis": -1, "scale": true, "gamma_regularizer": null}, "inbound_nodes": [[["conv1d_44", 0, 0, {}]]]}, {"class_name": "BatchNormalization", "name": "batch_normalization_48", "config": {"moving_mean_initializer": {"class_name": "Zeros", "config": {}}, "gamma_constraint": null, "epsilon": 0.001, "beta_regularizer": null, "trainable": true, "beta_constraint": null, "center": true, "gamma_initializer": {"class_name": "Ones", "config": {}}, "name": "batch_normalization_48", "beta_initializer": {"class_name": "Zeros", "config": {}}, "moving_variance_initializer": {"class_name": "Ones", "config": {}}, "momentum": 0.99, "axis": -1, "scale": true, "gamma_regularizer": null}, "inbound_nodes": [[["conv1d_48", 0, 0, {}]]]}, {"class_name": "BatchNormalization", "name": "batch_normalization_14", "config": {"moving_mean_initializer": {"class_name": "Zeros", "config": {}}, "gamma_constraint": null, "epsilon": 0.001, "beta_regularizer": null, "trainable": true, "beta_constraint": null, "center": true, "gamma_initializer": {"class_name": "Ones", "config": {}}, "name": "batch_normalization_14", "beta_initializer": {"class_name": "Zeros", "config": {}}, "moving_variance_initializer": {"class_name": "Ones", "config": {}}, "momentum": 0.99, "axis": -1, "scale": true, "gamma_regularizer": null}, "inbound_nodes": [[["conv1d_14", 0, 0, {}]]]}, {"class_name": "BatchNormalization", "name": "batch_normalization_18", "config": {"moving_mean_initializer": {"class_name": "Zeros", "config": {}}, "gamma_constraint": null, "epsilon": 0.001, "beta_regularizer": null, "trainable": true, "beta_constraint": null, "center": true, "gamma_initializer": {"class_name": "Ones", "config": {}}, "name": "batch_normalization_18", "beta_initializer": {"class_name": "Zeros", "config": {}}, "moving_variance_initializer": {"class_name": "Ones", "config": {}}, "momentum": 0.99, "axis": -1, "scale": true, "gamma_regularizer": null}, "inbound_nodes": [[["conv1d_18", 0, 0, {}]]]}, {"class_name": "Activation", "name": "activation_84", "config": {"activation": "relu", "name": "activation_84", "trainable": true}, "inbound_nodes": [[["batch_normalization_84", 0, 0, {}]]]}, {"class_name": "Activation", "name": "activation_88", "config": {"activation": "relu", "name": "activation_88", "trainable": true}, "inbound_nodes": [[["batch_normalization_88", 0, 0, {}]]]}, {"class_name": "Activation", "name": "activation_44", "config": {"activation": "relu", "name": "activation_44", "trainable": true}, "inbound_nodes": [[["batch_normalization_44", 0, 0, {}]]]}, {"class_name": "Activation", "name": "activation_48", "config": {"activation": "relu", "name": "activation_48", "trainable": true}, "inbound_nodes": [[["batch_normalization_48", 0, 0, {}]]]}, {"class_name": "Activation", "name": "activation_14", "config": {"activation": "relu", "name": "activation_14", "trainable": true}, "inbound_nodes": [[["batch_normalization_14", 0, 0, {}]]]}, {"class_name": "Activation", "name": "activation_18", "config": {"activation": "relu", "name": "activation_18", "trainable": true}, "inbound_nodes": [[["batch_normalization_18", 0, 0, {}]]]}, {"class_name": "Dropout", "name": "dropout_84", "config": {"rate": 0.45, "name": "dropout_84", "trainable": true}, "inbound_nodes": [[["activation_84", 0, 0, {}]]]}, {"class_name": "Dropout", "name": "dropout_88", "config": {"rate": 0.45, "name": "dropout_88", "trainable": true}, "inbound_nodes": [[["activation_88", 0, 0, {}]]]}, {"class_name": "Dropout", "name": "dropout_44", "config": {"rate": 0.45, "name": "dropout_44", "trainable": true}, "inbound_nodes": [[["activation_44", 0, 0, {}]]]}, {"class_name": "Dropout", "name": "dropout_48", "config": {"rate": 0.45, "name": "dropout_48", "trainable": true}, "inbound_nodes": [[["activation_48", 0, 0, {}]]]}, {"class_name": "Dropout", "name": "dropout_14", "config": {"rate": 0.45, "name": "dropout_14", "trainable": true}, "inbound_nodes": [[["activation_14", 0, 0, {}]]]}, {"class_name": "Dropout", "name": "dropout_18", "config": {"rate": 0.45, "name": "dropout_18", "trainable": true}, "inbound_nodes": [[["activation_18", 0, 0, {}]]]}, {"class_name": "Conv1D", "name": "conv1d_82", "config": {"dilation_rate": [1], "activation": "linear", "kernel_constraint": null, "kernel_size": [1], "trainable": true, "bias_initializer": {"class_name": "VarianceScaling", "config": {"mode": "fan_avg", "seed": null, "scale": 1.0, "distribution": "uniform"}}, "kernel_initializer": {"class_name": "VarianceScaling", "config": {"mode": "fan_avg", "seed": null, "scale": 1.0, "distribution": "uniform"}}, "use_bias": true, "bias_regularizer": null, "name": "conv1d_82", "filters": 64, "kernel_regularizer": null, "activity_regularizer": null, "bias_constraint": null, "padding": "same", "strides": [1]}, "inbound_nodes": [[["concatenate_9", 0, 0, {}]]]}, {"class_name": "Conv1D", "name": "conv1d_85", "config": {"dilation_rate": [1], "activation": "linear", "kernel_constraint": null, "kernel_size": [7], "trainable": true, "bias_initializer": {"class_name": "VarianceScaling", "config": {"mode": "fan_avg", "seed": null, "scale": 1.0, "distribution": "uniform"}}, "kernel_initializer": {"class_name": "VarianceScaling", "config": {"mode": "fan_avg", "seed": null, "scale": 1.0, "distribution": "uniform"}}, "use_bias": true, "bias_regularizer": null, "name": "conv1d_85", "filters": 64, "kernel_regularizer": null, "activity_regularizer": null, "bias_constraint": null, "padding": "same", "strides": [1]}, "inbound_nodes": [[["dropout_84", 0, 0, {}]]]}, {"class_name": "Conv1D", "name": "conv1d_89", "config": {"dilation_rate": [1], "activation": "linear", "kernel_constraint": null, "kernel_size": [11], "trainable": true, "bias_initializer": {"class_name": "VarianceScaling", "config": {"mode": "fan_avg", "seed": null, "scale": 1.0, "distribution": "uniform"}}, "kernel_initializer": {"class_name": "VarianceScaling", "config": {"mode": "fan_avg", "seed": null, "scale": 1.0, "distribution": "uniform"}}, "use_bias": true, "bias_regularizer": null, "name": "conv1d_89", "filters": 64, "kernel_regularizer": null, "activity_regularizer": null, "bias_constraint": null, "padding": "same", "strides": [1]}, "inbound_nodes": [[["dropout_88", 0, 0, {}]]]}, {"class_name": "Conv1D", "name": "conv1d_42", "config": {"dilation_rate": [1], "activation": "linear", "kernel_constraint": null, "kernel_size": [1], "trainable": true, "bias_initializer": {"class_name": "VarianceScaling", "config": {"mode": "fan_avg", "seed": null, "scale": 1.0, "distribution": "uniform"}}, "kernel_initializer": {"class_name": "VarianceScaling", "config": {"mode": "fan_avg", "seed": null, "scale": 1.0, "distribution": "uniform"}}, "use_bias": true, "bias_regularizer": null, "name": "conv1d_42", "filters": 64, "kernel_regularizer": null, "activity_regularizer": null, "bias_constraint": null, "padding": "same", "strides": [1]}, "inbound_nodes": [[["concatenate_5", 0, 0, {}]]]}, {"class_name": "Conv1D", "name": "conv1d_45", "config": {"dilation_rate": [1], "activation": "linear", "kernel_constraint": null, "kernel_size": [7], "trainable": true, "bias_initializer": {"class_name": "VarianceScaling", "config": {"mode": "fan_avg", "seed": null, "scale": 1.0, "distribution": "uniform"}}, "kernel_initializer": {"class_name": "VarianceScaling", "config": {"mode": "fan_avg", "seed": null, "scale": 1.0, "distribution": "uniform"}}, "use_bias": true, "bias_regularizer": null, "name": "conv1d_45", "filters": 64, "kernel_regularizer": null, "activity_regularizer": null, "bias_constraint": null, "padding": "same", "strides": [1]}, "inbound_nodes": [[["dropout_44", 0, 0, {}]]]}, {"class_name": "Conv1D", "name": "conv1d_49", "config": {"dilation_rate": [1], "activation": "linear", "kernel_constraint": null, "kernel_size": [11], "trainable": true, "bias_initializer": {"class_name": "VarianceScaling", "config": {"mode": "fan_avg", "seed": null, "scale": 1.0, "distribution": "uniform"}}, "kernel_initializer": {"class_name": "VarianceScaling", "config": {"mode": "fan_avg", "seed": null, "scale": 1.0, "distribution": "uniform"}}, "use_bias": true, "bias_regularizer": null, "name": "conv1d_49", "filters": 64, "kernel_regularizer": null, "activity_regularizer": null, "bias_constraint": null, "padding": "same", "strides": [1]}, "inbound_nodes": [[["dropout_48", 0, 0, {}]]]}, {"class_name": "Conv1D", "name": "conv1d_12", "config": {"dilation_rate": [1], "activation": "linear", "kernel_constraint": null, "kernel_size": [1], "trainable": true, "bias_initializer": {"class_name": "VarianceScaling", "config": {"mode": "fan_avg", "seed": null, "scale": 1.0, "distribution": "uniform"}}, "kernel_initializer": {"class_name": "VarianceScaling", "config": {"mode": "fan_avg", "seed": null, "scale": 1.0, "distribution": "uniform"}}, "use_bias": true, "bias_regularizer": null, "name": "conv1d_12", "filters": 64, "kernel_regularizer": null, "activity_regularizer": null, "bias_constraint": null, "padding": "same", "strides": [1]}, "inbound_nodes": [[["concatenate_1", 0, 0, {}]]]}, {"class_name": "Conv1D", "name": "conv1d_15", "config": {"dilation_rate": [1], "activation": "linear", "kernel_constraint": null, "kernel_size": [7], "trainable": true, "bias_initializer": {"class_name": "VarianceScaling", "config": {"mode": "fan_avg", "seed": null, "scale": 1.0, "distribution": "uniform"}}, "kernel_initializer": {"class_name": "VarianceScaling", "config": {"mode": "fan_avg", "seed": null, "scale": 1.0, "distribution": "uniform"}}, "use_bias": true, "bias_regularizer": null, "name": "conv1d_15", "filters": 64, "kernel_regularizer": null, "activity_regularizer": null, "bias_constraint": null, "padding": "same", "strides": [1]}, "inbound_nodes": [[["dropout_14", 0, 0, {}]]]}, {"class_name": "Conv1D", "name": "conv1d_19", "config": {"dilation_rate": [1], "activation": "linear", "kernel_constraint": null, "kernel_size": [11], "trainable": true, "bias_initializer": {"class_name": "VarianceScaling", "config": {"mode": "fan_avg", "seed": null, "scale": 1.0, "distribution": "uniform"}}, "kernel_initializer": {"class_name": "VarianceScaling", "config": {"mode": "fan_avg", "seed": null, "scale": 1.0, "distribution": "uniform"}}, "use_bias": true, "bias_regularizer": null, "name": "conv1d_19", "filters": 64, "kernel_regularizer": null, "activity_regularizer": null, "bias_constraint": null, "padding": "same", "strides": [1]}, "inbound_nodes": [[["dropout_18", 0, 0, {}]]]}, {"class_name": "BatchNormalization", "name": "batch_normalization_82", "config": {"moving_mean_initializer": {"class_name": "Zeros", "config": {}}, "gamma_constraint": null, "epsilon": 0.001, "beta_regularizer": null, "trainable": true, "beta_constraint": null, "center": true, "gamma_initializer": {"class_name": "Ones", "config": {}}, "name": "batch_normalization_82", "beta_initializer": {"class_name": "Zeros", "config": {}}, "moving_variance_initializer": {"class_name": "Ones", "config": {}}, "momentum": 0.99, "axis": -1, "scale": true, "gamma_regularizer": null}, "inbound_nodes": [[["conv1d_82", 0, 0, {}]]]}, {"class_name": "BatchNormalization", "name": "batch_normalization_85", "config": {"moving_mean_initializer": {"class_name": "Zeros", "config": {}}, "gamma_constraint": null, "epsilon": 0.001, "beta_regularizer": null, "trainable": true, "beta_constraint": null, "center": true, "gamma_initializer": {"class_name": "Ones", "config": {}}, "name": "batch_normalization_85", "beta_initializer": {"class_name": "Zeros", "config": {}}, "moving_variance_initializer": {"class_name": "Ones", "config": {}}, "momentum": 0.99, "axis": -1, "scale": true, "gamma_regularizer": null}, "inbound_nodes": [[["conv1d_85", 0, 0, {}]]]}, {"class_name": "BatchNormalization", "name": "batch_normalization_89", "config": {"moving_mean_initializer": {"class_name": "Zeros", "config": {}}, "gamma_constraint": null, "epsilon": 0.001, "beta_regularizer": null, "trainable": true, "beta_constraint": null, "center": true, "gamma_initializer": {"class_name": "Ones", "config": {}}, "name": "batch_normalization_89", "beta_initializer": {"class_name": "Zeros", "config": {}}, "moving_variance_initializer": {"class_name": "Ones", "config": {}}, "momentum": 0.99, "axis": -1, "scale": true, "gamma_regularizer": null}, "inbound_nodes": [[["conv1d_89", 0, 0, {}]]]}, {"class_name": "BatchNormalization", "name": "batch_normalization_42", "config": {"moving_mean_initializer": {"class_name": "Zeros", "config": {}}, "gamma_constraint": null, "epsilon": 0.001, "beta_regularizer": null, "trainable": true, "beta_constraint": null, "center": true, "gamma_initializer": {"class_name": "Ones", "config": {}}, "name": "batch_normalization_42", "beta_initializer": {"class_name": "Zeros", "config": {}}, "moving_variance_initializer": {"class_name": "Ones", "config": {}}, "momentum": 0.99, "axis": -1, "scale": true, "gamma_regularizer": null}, "inbound_nodes": [[["conv1d_42", 0, 0, {}]]]}, {"class_name": "BatchNormalization", "name": "batch_normalization_45", "config": {"moving_mean_initializer": {"class_name": "Zeros", "config": {}}, "gamma_constraint": null, "epsilon": 0.001, "beta_regularizer": null, "trainable": true, "beta_constraint": null, "center": true, "gamma_initializer": {"class_name": "Ones", "config": {}}, "name": "batch_normalization_45", "beta_initializer": {"class_name": "Zeros", "config": {}}, "moving_variance_initializer": {"class_name": "Ones", "config": {}}, "momentum": 0.99, "axis": -1, "scale": true, "gamma_regularizer": null}, "inbound_nodes": [[["conv1d_45", 0, 0, {}]]]}, {"class_name": "BatchNormalization", "name": "batch_normalization_49", "config": {"moving_mean_initializer": {"class_name": "Zeros", "config": {}}, "gamma_constraint": null, "epsilon": 0.001, "beta_regularizer": null, "trainable": true, "beta_constraint": null, "center": true, "gamma_initializer": {"class_name": "Ones", "config": {}}, "name": "batch_normalization_49", "beta_initializer": {"class_name": "Zeros", "config": {}}, "moving_variance_initializer": {"class_name": "Ones", "config": {}}, "momentum": 0.99, "axis": -1, "scale": true, "gamma_regularizer": null}, "inbound_nodes": [[["conv1d_49", 0, 0, {}]]]}, {"class_name": "BatchNormalization", "name": "batch_normalization_12", "config": {"moving_mean_initializer": {"class_name": "Zeros", "config": {}}, "gamma_constraint": null, "epsilon": 0.001, "beta_regularizer": null, "trainable": true, "beta_constraint": null, "center": true, "gamma_initializer": {"class_name": "Ones", "config": {}}, "name": "batch_normalization_12", "beta_initializer": {"class_name": "Zeros", "config": {}}, "moving_variance_initializer": {"class_name": "Ones", "config": {}}, "momentum": 0.99, "axis": -1, "scale": true, "gamma_regularizer": null}, "inbound_nodes": [[["conv1d_12", 0, 0, {}]]]}, {"class_name": "BatchNormalization", "name": "batch_normalization_15", "config": {"moving_mean_initializer": {"class_name": "Zeros", "config": {}}, "gamma_constraint": null, "epsilon": 0.001, "beta_regularizer": null, "trainable": true, "beta_constraint": null, "center": true, "gamma_initializer": {"class_name": "Ones", "config": {}}, "name": "batch_normalization_15", "beta_initializer": {"class_name": "Zeros", "config": {}}, "moving_variance_initializer": {"class_name": "Ones", "config": {}}, "momentum": 0.99, "axis": -1, "scale": true, "gamma_regularizer": null}, "inbound_nodes": [[["conv1d_15", 0, 0, {}]]]}, {"class_name": "BatchNormalization", "name": "batch_normalization_19", "config": {"moving_mean_initializer": {"class_name": "Zeros", "config": {}}, "gamma_constraint": null, "epsilon": 0.001, "beta_regularizer": null, "trainable": true, "beta_constraint": null, "center": true, "gamma_initializer": {"class_name": "Ones", "config": {}}, "name": "batch_normalization_19", "beta_initializer": {"class_name": "Zeros", "config": {}}, "moving_variance_initializer": {"class_name": "Ones", "config": {}}, "momentum": 0.99, "axis": -1, "scale": true, "gamma_regularizer": null}, "inbound_nodes": [[["conv1d_19", 0, 0, {}]]]}, {"class_name": "Activation", "name": "activation_82", "config": {"activation": "relu", "name": "activation_82", "trainable": true}, "inbound_nodes": [[["batch_normalization_82", 0, 0, {}]]]}, {"class_name": "Activation", "name": "activation_85", "config": {"activation": "relu", "name": "activation_85", "trainable": true}, "inbound_nodes": [[["batch_normalization_85", 0, 0, {}]]]}, {"class_name": "Activation", "name": "activation_89", "config": {"activation": "relu", "name": "activation_89", "trainable": true}, "inbound_nodes": [[["batch_normalization_89", 0, 0, {}]]]}, {"class_name": "Activation", "name": "activation_42", "config": {"activation": "relu", "name": "activation_42", "trainable": true}, "inbound_nodes": [[["batch_normalization_42", 0, 0, {}]]]}, {"class_name": "Activation", "name": "activation_45", "config": {"activation": "relu", "name": "activation_45", "trainable": true}, "inbound_nodes": [[["batch_normalization_45", 0, 0, {}]]]}, {"class_name": "Activation", "name": "activation_49", "config": {"activation": "relu", "name": "activation_49", "trainable": true}, "inbound_nodes": [[["batch_normalization_49", 0, 0, {}]]]}, {"class_name": "Activation", "name": "activation_12", "config": {"activation": "relu", "name": "activation_12", "trainable": true}, "inbound_nodes": [[["batch_normalization_12", 0, 0, {}]]]}, {"class_name": "Activation", "name": "activation_15", "config": {"activation": "relu", "name": "activation_15", "trainable": true}, "inbound_nodes": [[["batch_normalization_15", 0, 0, {}]]]}, {"class_name": "Activation", "name": "activation_19", "config": {"activation": "relu", "name": "activation_19", "trainable": true}, "inbound_nodes": [[["batch_normalization_19", 0, 0, {}]]]}, {"class_name": "Dropout", "name": "dropout_82", "config": {"rate": 0.45, "name": "dropout_82", "trainable": true}, "inbound_nodes": [[["activation_82", 0, 0, {}]]]}, {"class_name": "Dropout", "name": "dropout_85", "config": {"rate": 0.45, "name": "dropout_85", "trainable": true}, "inbound_nodes": [[["activation_85", 0, 0, {}]]]}, {"class_name": "Dropout", "name": "dropout_89", "config": {"rate": 0.45, "name": "dropout_89", "trainable": true}, "inbound_nodes": [[["activation_89", 0, 0, {}]]]}, {"class_name": "Dropout", "name": "dropout_42", "config": {"rate": 0.45, "name": "dropout_42", "trainable": true}, "inbound_nodes": [[["activation_42", 0, 0, {}]]]}, {"class_name": "Dropout", "name": "dropout_45", "config": {"rate": 0.45, "name": "dropout_45", "trainable": true}, "inbound_nodes": [[["activation_45", 0, 0, {}]]]}, {"class_name": "Dropout", "name": "dropout_49", "config": {"rate": 0.45, "name": "dropout_49", "trainable": true}, "inbound_nodes": [[["activation_49", 0, 0, {}]]]}, {"class_name": "Dropout", "name": "dropout_12", "config": {"rate": 0.45, "name": "dropout_12", "trainable": true}, "inbound_nodes": [[["activation_12", 0, 0, {}]]]}, {"class_name": "Dropout", "name": "dropout_15", "config": {"rate": 0.45, "name": "dropout_15", "trainable": true}, "inbound_nodes": [[["activation_15", 0, 0, {}]]]}, {"class_name": "Dropout", "name": "dropout_19", "config": {"rate": 0.45, "name": "dropout_19", "trainable": true}, "inbound_nodes": [[["activation_19", 0, 0, {}]]]}, {"class_name": "Conv1D", "name": "conv1d_81", "config": {"dilation_rate": [1], "activation": "linear", "kernel_constraint": null, "kernel_size": [1], "trainable": true, "bias_initializer": {"class_name": "VarianceScaling", "config": {"mode": "fan_avg", "seed": null, "scale": 1.0, "distribution": "uniform"}}, "kernel_initializer": {"class_name": "VarianceScaling", "config": {"mode": "fan_avg", "seed": null, "scale": 1.0, "distribution": "uniform"}}, "use_bias": true, "bias_regularizer": null, "name": "conv1d_81", "filters": 64, "kernel_regularizer": null, "activity_regularizer": null, "bias_constraint": null, "padding": "same", "strides": [1]}, "inbound_nodes": [[["concatenate_9", 0, 0, {}]]]}, {"class_name": "Conv1D", "name": "conv1d_83", "config": {"dilation_rate": [1], "activation": "linear", "kernel_constraint": null, "kernel_size": [3], "trainable": true, "bias_initializer": {"class_name": "VarianceScaling", "config": {"mode": "fan_avg", "seed": null, "scale": 1.0, "distribution": "uniform"}}, "kernel_initializer": {"class_name": "VarianceScaling", "config": {"mode": "fan_avg", "seed": null, "scale": 1.0, "distribution": "uniform"}}, "use_bias": true, "bias_regularizer": null, "name": "conv1d_83", "filters": 64, "kernel_regularizer": null, "activity_regularizer": null, "bias_constraint": null, "padding": "same", "strides": [1]}, "inbound_nodes": [[["dropout_82", 0, 0, {}]]]}, {"class_name": "Conv1D", "name": "conv1d_86", "config": {"dilation_rate": [1], "activation": "linear", "kernel_constraint": null, "kernel_size": [7], "trainable": true, "bias_initializer": {"class_name": "VarianceScaling", "config": {"mode": "fan_avg", "seed": null, "scale": 1.0, "distribution": "uniform"}}, "kernel_initializer": {"class_name": "VarianceScaling", "config": {"mode": "fan_avg", "seed": null, "scale": 1.0, "distribution": "uniform"}}, "use_bias": true, "bias_regularizer": null, "name": "conv1d_86", "filters": 64, "kernel_regularizer": null, "activity_regularizer": null, "bias_constraint": null, "padding": "same", "strides": [1]}, "inbound_nodes": [[["dropout_85", 0, 0, {}]]]}, {"class_name": "Conv1D", "name": "conv1d_90", "config": {"dilation_rate": [1], "activation": "linear", "kernel_constraint": null, "kernel_size": [11], "trainable": true, "bias_initializer": {"class_name": "VarianceScaling", "config": {"mode": "fan_avg", "seed": null, "scale": 1.0, "distribution": "uniform"}}, "kernel_initializer": {"class_name": "VarianceScaling", "config": {"mode": "fan_avg", "seed": null, "scale": 1.0, "distribution": "uniform"}}, "use_bias": true, "bias_regularizer": null, "name": "conv1d_90", "filters": 64, "kernel_regularizer": null, "activity_regularizer": null, "bias_constraint": null, "padding": "same", "strides": [1]}, "inbound_nodes": [[["dropout_89", 0, 0, {}]]]}, {"class_name": "Conv1D", "name": "conv1d_41", "config": {"dilation_rate": [1], "activation": "linear", "kernel_constraint": null, "kernel_size": [1], "trainable": true, "bias_initializer": {"class_name": "VarianceScaling", "config": {"mode": "fan_avg", "seed": null, "scale": 1.0, "distribution": "uniform"}}, "kernel_initializer": {"class_name": "VarianceScaling", "config": {"mode": "fan_avg", "seed": null, "scale": 1.0, "distribution": "uniform"}}, "use_bias": true, "bias_regularizer": null, "name": "conv1d_41", "filters": 64, "kernel_regularizer": null, "activity_regularizer": null, "bias_constraint": null, "padding": "same", "strides": [1]}, "inbound_nodes": [[["concatenate_5", 0, 0, {}]]]}, {"class_name": "Conv1D", "name": "conv1d_43", "config": {"dilation_rate": [1], "activation": "linear", "kernel_constraint": null, "kernel_size": [3], "trainable": true, "bias_initializer": {"class_name": "VarianceScaling", "config": {"mode": "fan_avg", "seed": null, "scale": 1.0, "distribution": "uniform"}}, "kernel_initializer": {"class_name": "VarianceScaling", "config": {"mode": "fan_avg", "seed": null, "scale": 1.0, "distribution": "uniform"}}, "use_bias": true, "bias_regularizer": null, "name": "conv1d_43", "filters": 64, "kernel_regularizer": null, "activity_regularizer": null, "bias_constraint": null, "padding": "same", "strides": [1]}, "inbound_nodes": [[["dropout_42", 0, 0, {}]]]}, {"class_name": "Conv1D", "name": "conv1d_46", "config": {"dilation_rate": [1], "activation": "linear", "kernel_constraint": null, "kernel_size": [7], "trainable": true, "bias_initializer": {"class_name": "VarianceScaling", "config": {"mode": "fan_avg", "seed": null, "scale": 1.0, "distribution": "uniform"}}, "kernel_initializer": {"class_name": "VarianceScaling", "config": {"mode": "fan_avg", "seed": null, "scale": 1.0, "distribution": "uniform"}}, "use_bias": true, "bias_regularizer": null, "name": "conv1d_46", "filters": 64, "kernel_regularizer": null, "activity_regularizer": null, "bias_constraint": null, "padding": "same", "strides": [1]}, "inbound_nodes": [[["dropout_45", 0, 0, {}]]]}, {"class_name": "Conv1D", "name": "conv1d_50", "config": {"dilation_rate": [1], "activation": "linear", "kernel_constraint": null, "kernel_size": [11], "trainable": true, "bias_initializer": {"class_name": "VarianceScaling", "config": {"mode": "fan_avg", "seed": null, "scale": 1.0, "distribution": "uniform"}}, "kernel_initializer": {"class_name": "VarianceScaling", "config": {"mode": "fan_avg", "seed": null, "scale": 1.0, "distribution": "uniform"}}, "use_bias": true, "bias_regularizer": null, "name": "conv1d_50", "filters": 64, "kernel_regularizer": null, "activity_regularizer": null, "bias_constraint": null, "padding": "same", "strides": [1]}, "inbound_nodes": [[["dropout_49", 0, 0, {}]]]}, {"class_name": "Conv1D", "name": "conv1d_11", "config": {"dilation_rate": [1], "activation": "linear", "kernel_constraint": null, "kernel_size": [1], "trainable": true, "bias_initializer": {"class_name": "VarianceScaling", "config": {"mode": "fan_avg", "seed": null, "scale": 1.0, "distribution": "uniform"}}, "kernel_initializer": {"class_name": "VarianceScaling", "config": {"mode": "fan_avg", "seed": null, "scale": 1.0, "distribution": "uniform"}}, "use_bias": true, "bias_regularizer": null, "name": "conv1d_11", "filters": 64, "kernel_regularizer": null, "activity_regularizer": null, "bias_constraint": null, "padding": "same", "strides": [1]}, "inbound_nodes": [[["concatenate_1", 0, 0, {}]]]}, {"class_name": "Conv1D", "name": "conv1d_13", "config": {"dilation_rate": [1], "activation": "linear", "kernel_constraint": null, "kernel_size": [3], "trainable": true, "bias_initializer": {"class_name": "VarianceScaling", "config": {"mode": "fan_avg", "seed": null, "scale": 1.0, "distribution": "uniform"}}, "kernel_initializer": {"class_name": "VarianceScaling", "config": {"mode": "fan_avg", "seed": null, "scale": 1.0, "distribution": "uniform"}}, "use_bias": true, "bias_regularizer": null, "name": "conv1d_13", "filters": 64, "kernel_regularizer": null, "activity_regularizer": null, "bias_constraint": null, "padding": "same", "strides": [1]}, "inbound_nodes": [[["dropout_12", 0, 0, {}]]]}, {"class_name": "Conv1D", "name": "conv1d_16", "config": {"dilation_rate": [1], "activation": "linear", "kernel_constraint": null, "kernel_size": [7], "trainable": true, "bias_initializer": {"class_name": "VarianceScaling", "config": {"mode": "fan_avg", "seed": null, "scale": 1.0, "distribution": "uniform"}}, "kernel_initializer": {"class_name": "VarianceScaling", "config": {"mode": "fan_avg", "seed": null, "scale": 1.0, "distribution": "uniform"}}, "use_bias": true, "bias_regularizer": null, "name": "conv1d_16", "filters": 64, "kernel_regularizer": null, "activity_regularizer": null, "bias_constraint": null, "padding": "same", "strides": [1]}, "inbound_nodes": [[["dropout_15", 0, 0, {}]]]}, {"class_name": "Conv1D", "name": "conv1d_20", "config": {"dilation_rate": [1], "activation": "linear", "kernel_constraint": null, "kernel_size": [11], "trainable": true, "bias_initializer": {"class_name": "VarianceScaling", "config": {"mode": "fan_avg", "seed": null, "scale": 1.0, "distribution": "uniform"}}, "kernel_initializer": {"class_name": "VarianceScaling", "config": {"mode": "fan_avg", "seed": null, "scale": 1.0, "distribution": "uniform"}}, "use_bias": true, "bias_regularizer": null, "name": "conv1d_20", "filters": 64, "kernel_regularizer": null, "activity_regularizer": null, "bias_constraint": null, "padding": "same", "strides": [1]}, "inbound_nodes": [[["dropout_19", 0, 0, {}]]]}, {"class_name": "BatchNormalization", "name": "batch_normalization_81", "config": {"moving_mean_initializer": {"class_name": "Zeros", "config": {}}, "gamma_constraint": null, "epsilon": 0.001, "beta_regularizer": null, "trainable": true, "beta_constraint": null, "center": true, "gamma_initializer": {"class_name": "Ones", "config": {}}, "name": "batch_normalization_81", "beta_initializer": {"class_name": "Zeros", "config": {}}, "moving_variance_initializer": {"class_name": "Ones", "config": {}}, "momentum": 0.99, "axis": -1, "scale": true, "gamma_regularizer": null}, "inbound_nodes": [[["conv1d_81", 0, 0, {}]]]}, {"class_name": "BatchNormalization", "name": "batch_normalization_83", "config": {"moving_mean_initializer": {"class_name": "Zeros", "config": {}}, "gamma_constraint": null, "epsilon": 0.001, "beta_regularizer": null, "trainable": true, "beta_constraint": null, "center": true, "gamma_initializer": {"class_name": "Ones", "config": {}}, "name": "batch_normalization_83", "beta_initializer": {"class_name": "Zeros", "config": {}}, "moving_variance_initializer": {"class_name": "Ones", "config": {}}, "momentum": 0.99, "axis": -1, "scale": true, "gamma_regularizer": null}, "inbound_nodes": [[["conv1d_83", 0, 0, {}]]]}, {"class_name": "BatchNormalization", "name": "batch_normalization_86", "config": {"moving_mean_initializer": {"class_name": "Zeros", "config": {}}, "gamma_constraint": null, "epsilon": 0.001, "beta_regularizer": null, "trainable": true, "beta_constraint": null, "center": true, "gamma_initializer": {"class_name": "Ones", "config": {}}, "name": "batch_normalization_86", "beta_initializer": {"class_name": "Zeros", "config": {}}, "moving_variance_initializer": {"class_name": "Ones", "config": {}}, "momentum": 0.99, "axis": -1, "scale": true, "gamma_regularizer": null}, "inbound_nodes": [[["conv1d_86", 0, 0, {}]]]}, {"class_name": "BatchNormalization", "name": "batch_normalization_90", "config": {"moving_mean_initializer": {"class_name": "Zeros", "config": {}}, "gamma_constraint": null, "epsilon": 0.001, "beta_regularizer": null, "trainable": true, "beta_constraint": null, "center": true, "gamma_initializer": {"class_name": "Ones", "config": {}}, "name": "batch_normalization_90", "beta_initializer": {"class_name": "Zeros", "config": {}}, "moving_variance_initializer": {"class_name": "Ones", "config": {}}, "momentum": 0.99, "axis": -1, "scale": true, "gamma_regularizer": null}, "inbound_nodes": [[["conv1d_90", 0, 0, {}]]]}, {"class_name": "BatchNormalization", "name": "batch_normalization_41", "config": {"moving_mean_initializer": {"class_name": "Zeros", "config": {}}, "gamma_constraint": null, "epsilon": 0.001, "beta_regularizer": null, "trainable": true, "beta_constraint": null, "center": true, "gamma_initializer": {"class_name": "Ones", "config": {}}, "name": "batch_normalization_41", "beta_initializer": {"class_name": "Zeros", "config": {}}, "moving_variance_initializer": {"class_name": "Ones", "config": {}}, "momentum": 0.99, "axis": -1, "scale": true, "gamma_regularizer": null}, "inbound_nodes": [[["conv1d_41", 0, 0, {}]]]}, {"class_name": "BatchNormalization", "name": "batch_normalization_43", "config": {"moving_mean_initializer": {"class_name": "Zeros", "config": {}}, "gamma_constraint": null, "epsilon": 0.001, "beta_regularizer": null, "trainable": true, "beta_constraint": null, "center": true, "gamma_initializer": {"class_name": "Ones", "config": {}}, "name": "batch_normalization_43", "beta_initializer": {"class_name": "Zeros", "config": {}}, "moving_variance_initializer": {"class_name": "Ones", "config": {}}, "momentum": 0.99, "axis": -1, "scale": true, "gamma_regularizer": null}, "inbound_nodes": [[["conv1d_43", 0, 0, {}]]]}, {"class_name": "BatchNormalization", "name": "batch_normalization_46", "config": {"moving_mean_initializer": {"class_name": "Zeros", "config": {}}, "gamma_constraint": null, "epsilon": 0.001, "beta_regularizer": null, "trainable": true, "beta_constraint": null, "center": true, "gamma_initializer": {"class_name": "Ones", "config": {}}, "name": "batch_normalization_46", "beta_initializer": {"class_name": "Zeros", "config": {}}, "moving_variance_initializer": {"class_name": "Ones", "config": {}}, "momentum": 0.99, "axis": -1, "scale": true, "gamma_regularizer": null}, "inbound_nodes": [[["conv1d_46", 0, 0, {}]]]}, {"class_name": "BatchNormalization", "name": "batch_normalization_50", "config": {"moving_mean_initializer": {"class_name": "Zeros", "config": {}}, "gamma_constraint": null, "epsilon": 0.001, "beta_regularizer": null, "trainable": true, "beta_constraint": null, "center": true, "gamma_initializer": {"class_name": "Ones", "config": {}}, "name": "batch_normalization_50", "beta_initializer": {"class_name": "Zeros", "config": {}}, "moving_variance_initializer": {"class_name": "Ones", "config": {}}, "momentum": 0.99, "axis": -1, "scale": true, "gamma_regularizer": null}, "inbound_nodes": [[["conv1d_50", 0, 0, {}]]]}, {"class_name": "BatchNormalization", "name": "batch_normalization_11", "config": {"moving_mean_initializer": {"class_name": "Zeros", "config": {}}, "gamma_constraint": null, "epsilon": 0.001, "beta_regularizer": null, "trainable": true, "beta_constraint": null, "center": true, "gamma_initializer": {"class_name": "Ones", "config": {}}, "name": "batch_normalization_11", "beta_initializer": {"class_name": "Zeros", "config": {}}, "moving_variance_initializer": {"class_name": "Ones", "config": {}}, "momentum": 0.99, "axis": -1, "scale": true, "gamma_regularizer": null}, "inbound_nodes": [[["conv1d_11", 0, 0, {}]]]}, {"class_name": "BatchNormalization", "name": "batch_normalization_13", "config": {"moving_mean_initializer": {"class_name": "Zeros", "config": {}}, "gamma_constraint": null, "epsilon": 0.001, "beta_regularizer": null, "trainable": true, "beta_constraint": null, "center": true, "gamma_initializer": {"class_name": "Ones", "config": {}}, "name": "batch_normalization_13", "beta_initializer": {"class_name": "Zeros", "config": {}}, "moving_variance_initializer": {"class_name": "Ones", "config": {}}, "momentum": 0.99, "axis": -1, "scale": true, "gamma_regularizer": null}, "inbound_nodes": [[["conv1d_13", 0, 0, {}]]]}, {"class_name": "BatchNormalization", "name": "batch_normalization_16", "config": {"moving_mean_initializer": {"class_name": "Zeros", "config": {}}, "gamma_constraint": null, "epsilon": 0.001, "beta_regularizer": null, "trainable": true, "beta_constraint": null, "center": true, "gamma_initializer": {"class_name": "Ones", "config": {}}, "name": "batch_normalization_16", "beta_initializer": {"class_name": "Zeros", "config": {}}, "moving_variance_initializer": {"class_name": "Ones", "config": {}}, "momentum": 0.99, "axis": -1, "scale": true, "gamma_regularizer": null}, "inbound_nodes": [[["conv1d_16", 0, 0, {}]]]}, {"class_name": "BatchNormalization", "name": "batch_normalization_20", "config": {"moving_mean_initializer": {"class_name": "Zeros", "config": {}}, "gamma_constraint": null, "epsilon": 0.001, "beta_regularizer": null, "trainable": true, "beta_constraint": null, "center": true, "gamma_initializer": {"class_name": "Ones", "config": {}}, "name": "batch_normalization_20", "beta_initializer": {"class_name": "Zeros", "config": {}}, "moving_variance_initializer": {"class_name": "Ones", "config": {}}, "momentum": 0.99, "axis": -1, "scale": true, "gamma_regularizer": null}, "inbound_nodes": [[["conv1d_20", 0, 0, {}]]]}, {"class_name": "Activation", "name": "activation_81", "config": {"activation": "relu", "name": "activation_81", "trainable": true}, "inbound_nodes": [[["batch_normalization_81", 0, 0, {}]]]}, {"class_name": "Activation", "name": "activation_83", "config": {"activation": "relu", "name": "activation_83", "trainable": true}, "inbound_nodes": [[["batch_normalization_83", 0, 0, {}]]]}, {"class_name": "Activation", "name": "activation_86", "config": {"activation": "relu", "name": "activation_86", "trainable": true}, "inbound_nodes": [[["batch_normalization_86", 0, 0, {}]]]}, {"class_name": "Activation", "name": "activation_90", "config": {"activation": "relu", "name": "activation_90", "trainable": true}, "inbound_nodes": [[["batch_normalization_90", 0, 0, {}]]]}, {"class_name": "Activation", "name": "activation_41", "config": {"activation": "relu", "name": "activation_41", "trainable": true}, "inbound_nodes": [[["batch_normalization_41", 0, 0, {}]]]}, {"class_name": "Activation", "name": "activation_43", "config": {"activation": "relu", "name": "activation_43", "trainable": true}, "inbound_nodes": [[["batch_normalization_43", 0, 0, {}]]]}, {"class_name": "Activation", "name": "activation_46", "config": {"activation": "relu", "name": "activation_46", "trainable": true}, "inbound_nodes": [[["batch_normalization_46", 0, 0, {}]]]}, {"class_name": "Activation", "name": "activation_50", "config": {"activation": "relu", "name": "activation_50", "trainable": true}, "inbound_nodes": [[["batch_normalization_50", 0, 0, {}]]]}, {"class_name": "Activation", "name": "activation_11", "config": {"activation": "relu", "name": "activation_11", "trainable": true}, "inbound_nodes": [[["batch_normalization_11", 0, 0, {}]]]}, {"class_name": "Activation", "name": "activation_13", "config": {"activation": "relu", "name": "activation_13", "trainable": true}, "inbound_nodes": [[["batch_normalization_13", 0, 0, {}]]]}, {"class_name": "Activation", "name": "activation_16", "config": {"activation": "relu", "name": "activation_16", "trainable": true}, "inbound_nodes": [[["batch_normalization_16", 0, 0, {}]]]}, {"class_name": "Activation", "name": "activation_20", "config": {"activation": "relu", "name": "activation_20", "trainable": true}, "inbound_nodes": [[["batch_normalization_20", 0, 0, {}]]]}, {"class_name": "Dropout", "name": "dropout_81", "config": {"rate": 0.45, "name": "dropout_81", "trainable": true}, "inbound_nodes": [[["activation_81", 0, 0, {}]]]}, {"class_name": "Dropout", "name": "dropout_83", "config": {"rate": 0.45, "name": "dropout_83", "trainable": true}, "inbound_nodes": [[["activation_83", 0, 0, {}]]]}, {"class_name": "Dropout", "name": "dropout_86", "config": {"rate": 0.45, "name": "dropout_86", "trainable": true}, "inbound_nodes": [[["activation_86", 0, 0, {}]]]}, {"class_name": "Dropout", "name": "dropout_90", "config": {"rate": 0.45, "name": "dropout_90", "trainable": true}, "inbound_nodes": [[["activation_90", 0, 0, {}]]]}, {"class_name": "Dropout", "name": "dropout_41", "config": {"rate": 0.45, "name": "dropout_41", "trainable": true}, "inbound_nodes": [[["activation_41", 0, 0, {}]]]}, {"class_name": "Dropout", "name": "dropout_43", "config": {"rate": 0.45, "name": "dropout_43", "trainable": true}, "inbound_nodes": [[["activation_43", 0, 0, {}]]]}, {"class_name": "Dropout", "name": "dropout_46", "config": {"rate": 0.45, "name": "dropout_46", "trainable": true}, "inbound_nodes": [[["activation_46", 0, 0, {}]]]}, {"class_name": "Dropout", "name": "dropout_50", "config": {"rate": 0.45, "name": "dropout_50", "trainable": true}, "inbound_nodes": [[["activation_50", 0, 0, {}]]]}, {"class_name": "Dropout", "name": "dropout_11", "config": {"rate": 0.45, "name": "dropout_11", "trainable": true}, "inbound_nodes": [[["activation_11", 0, 0, {}]]]}, {"class_name": "Dropout", "name": "dropout_13", "config": {"rate": 0.45, "name": "dropout_13", "trainable": true}, "inbound_nodes": [[["activation_13", 0, 0, {}]]]}, {"class_name": "Dropout", "name": "dropout_16", "config": {"rate": 0.45, "name": "dropout_16", "trainable": true}, "inbound_nodes": [[["activation_16", 0, 0, {}]]]}, {"class_name": "Dropout", "name": "dropout_20", "config": {"rate": 0.45, "name": "dropout_20", "trainable": true}, "inbound_nodes": [[["activation_20", 0, 0, {}]]]}, {"class_name": "Concatenate", "name": "concatenate_10", "config": {"name": "concatenate_10", "trainable": true, "axis": -1}, "inbound_nodes": [[["dropout_81", 0, 0, {}], ["dropout_83", 0, 0, {}], ["dropout_86", 0, 0, {}], ["dropout_90", 0, 0, {}]]]}, {"class_name": "Concatenate", "name": "concatenate_6", "config": {"name": "concatenate_6", "trainable": true, "axis": -1}, "inbound_nodes": [[["dropout_41", 0, 0, {}], ["dropout_43", 0, 0, {}], ["dropout_46", 0, 0, {}], ["dropout_50", 0, 0, {}]]]}, {"class_name": "Concatenate", "name": "concatenate_3", "config": {"name": "concatenate_3", "trainable": true, "axis": -1}, "inbound_nodes": [[["dropout_11", 0, 0, {}], ["dropout_13", 0, 0, {}], ["dropout_16", 0, 0, {}], ["dropout_20", 0, 0, {}]]]}, {"class_name": "Conv1D", "name": "conv1d_97", "config": {"dilation_rate": [1], "activation": "linear", "kernel_constraint": null, "kernel_size": [1], "trainable": true, "bias_initializer": {"class_name": "VarianceScaling", "config": {"mode": "fan_avg", "seed": null, "scale": 1.0, "distribution": "uniform"}}, "kernel_initializer": {"class_name": "VarianceScaling", "config": {"mode": "fan_avg", "seed": null, "scale": 1.0, "distribution": "uniform"}}, "use_bias": true, "bias_regularizer": null, "name": "conv1d_97", "filters": 64, "kernel_regularizer": null, "activity_regularizer": null, "bias_constraint": null, "padding": "same", "strides": [1]}, "inbound_nodes": [[["concatenate_10", 0, 0, {}]]]}, {"class_name": "Conv1D", "name": "conv1d_57", "config": {"dilation_rate": [1], "activation": "linear", "kernel_constraint": null, "kernel_size": [1], "trainable": true, "bias_initializer": {"class_name": "VarianceScaling", "config": {"mode": "fan_avg", "seed": null, "scale": 1.0, "distribution": "uniform"}}, "kernel_initializer": {"class_name": "VarianceScaling", "config": {"mode": "fan_avg", "seed": null, "scale": 1.0, "distribution": "uniform"}}, "use_bias": true, "bias_regularizer": null, "name": "conv1d_57", "filters": 64, "kernel_regularizer": null, "activity_regularizer": null, "bias_constraint": null, "padding": "same", "strides": [1]}, "inbound_nodes": [[["concatenate_6", 0, 0, {}]]]}, {"class_name": "Conv1D", "name": "conv1d_27", "config": {"dilation_rate": [1], "activation": "linear", "kernel_constraint": null, "kernel_size": [1], "trainable": true, "bias_initializer": {"class_name": "VarianceScaling", "config": {"mode": "fan_avg", "seed": null, "scale": 1.0, "distribution": "uniform"}}, "kernel_initializer": {"class_name": "VarianceScaling", "config": {"mode": "fan_avg", "seed": null, "scale": 1.0, "distribution": "uniform"}}, "use_bias": true, "bias_regularizer": null, "name": "conv1d_27", "filters": 64, "kernel_regularizer": null, "activity_regularizer": null, "bias_constraint": null, "padding": "same", "strides": [1]}, "inbound_nodes": [[["concatenate_3", 0, 0, {}]]]}, {"class_name": "Conv1D", "name": "conv1d_7", "config": {"dilation_rate": [1], "activation": "linear", "kernel_constraint": null, "kernel_size": [1], "trainable": true, "bias_initializer": {"class_name": "VarianceScaling", "config": {"mode": "fan_avg", "seed": null, "scale": 1.0, "distribution": "uniform"}}, "kernel_initializer": {"class_name": "VarianceScaling", "config": {"mode": "fan_avg", "seed": null, "scale": 1.0, "distribution": "uniform"}}, "use_bias": true, "bias_regularizer": null, "name": "conv1d_7", "filters": 64, "kernel_regularizer": null, "activity_regularizer": null, "bias_constraint": null, "padding": "same", "strides": [1]}, "inbound_nodes": [[["concatenate_1", 0, 0, {}]]]}, {"class_name": "BatchNormalization", "name": "batch_normalization_97", "config": {"moving_mean_initializer": {"class_name": "Zeros", "config": {}}, "gamma_constraint": null, "epsilon": 0.001, "beta_regularizer": null, "trainable": true, "beta_constraint": null, "center": true, "gamma_initializer": {"class_name": "Ones", "config": {}}, "name": "batch_normalization_97", "beta_initializer": {"class_name": "Zeros", "config": {}}, "moving_variance_initializer": {"class_name": "Ones", "config": {}}, "momentum": 0.99, "axis": -1, "scale": true, "gamma_regularizer": null}, "inbound_nodes": [[["conv1d_97", 0, 0, {}]]]}, {"class_name": "BatchNormalization", "name": "batch_normalization_57", "config": {"moving_mean_initializer": {"class_name": "Zeros", "config": {}}, "gamma_constraint": null, "epsilon": 0.001, "beta_regularizer": null, "trainable": true, "beta_constraint": null, "center": true, "gamma_initializer": {"class_name": "Ones", "config": {}}, "name": "batch_normalization_57", "beta_initializer": {"class_name": "Zeros", "config": {}}, "moving_variance_initializer": {"class_name": "Ones", "config": {}}, "momentum": 0.99, "axis": -1, "scale": true, "gamma_regularizer": null}, "inbound_nodes": [[["conv1d_57", 0, 0, {}]]]}, {"class_name": "BatchNormalization", "name": "batch_normalization_27", "config": {"moving_mean_initializer": {"class_name": "Zeros", "config": {}}, "gamma_constraint": null, "epsilon": 0.001, "beta_regularizer": null, "trainable": true, "beta_constraint": null, "center": true, "gamma_initializer": {"class_name": "Ones", "config": {}}, "name": "batch_normalization_27", "beta_initializer": {"class_name": "Zeros", "config": {}}, "moving_variance_initializer": {"class_name": "Ones", "config": {}}, "momentum": 0.99, "axis": -1, "scale": true, "gamma_regularizer": null}, "inbound_nodes": [[["conv1d_27", 0, 0, {}]]]}, {"class_name": "BatchNormalization", "name": "batch_normalization_7", "config": {"moving_mean_initializer": {"class_name": "Zeros", "config": {}}, "gamma_constraint": null, "epsilon": 0.001, "beta_regularizer": null, "trainable": true, "beta_constraint": null, "center": true, "gamma_initializer": {"class_name": "Ones", "config": {}}, "name": "batch_normalization_7", "beta_initializer": {"class_name": "Zeros", "config": {}}, "moving_variance_initializer": {"class_name": "Ones", "config": {}}, "momentum": 0.99, "axis": -1, "scale": true, "gamma_regularizer": null}, "inbound_nodes": [[["conv1d_7", 0, 0, {}]]]}, {"class_name": "Activation", "name": "activation_97", "config": {"activation": "relu", "name": "activation_97", "trainable": true}, "inbound_nodes": [[["batch_normalization_97", 0, 0, {}]]]}, {"class_name": "Activation", "name": "activation_57", "config": {"activation": "relu", "name": "activation_57", "trainable": true}, "inbound_nodes": [[["batch_normalization_57", 0, 0, {}]]]}, {"class_name": "Activation", "name": "activation_27", "config": {"activation": "relu", "name": "activation_27", "trainable": true}, "inbound_nodes": [[["batch_normalization_27", 0, 0, {}]]]}, {"class_name": "Activation", "name": "activation_7", "config": {"activation": "relu", "name": "activation_7", "trainable": true}, "inbound_nodes": [[["batch_normalization_7", 0, 0, {}]]]}, {"class_name": "Dropout", "name": "dropout_97", "config": {"rate": 0.45, "name": "dropout_97", "trainable": true}, "inbound_nodes": [[["activation_97", 0, 0, {}]]]}, {"class_name": "Dropout", "name": "dropout_57", "config": {"rate": 0.45, "name": "dropout_57", "trainable": true}, "inbound_nodes": [[["activation_57", 0, 0, {}]]]}, {"class_name": "Dropout", "name": "dropout_27", "config": {"rate": 0.45, "name": "dropout_27", "trainable": true}, "inbound_nodes": [[["activation_27", 0, 0, {}]]]}, {"class_name": "Dropout", "name": "dropout_7", "config": {"rate": 0.45, "name": "dropout_7", "trainable": true}, "inbound_nodes": [[["activation_7", 0, 0, {}]]]}, {"class_name": "Conv1D", "name": "conv1d_94", "config": {"dilation_rate": [1], "activation": "linear", "kernel_constraint": null, "kernel_size": [1], "trainable": true, "bias_initializer": {"class_name": "VarianceScaling", "config": {"mode": "fan_avg", "seed": null, "scale": 1.0, "distribution": "uniform"}}, "kernel_initializer": {"class_name": "VarianceScaling", "config": {"mode": "fan_avg", "seed": null, "scale": 1.0, "distribution": "uniform"}}, "use_bias": true, "bias_regularizer": null, "name": "conv1d_94", "filters": 64, "kernel_regularizer": null, "activity_regularizer": null, "bias_constraint": null, "padding": "same", "strides": [1]}, "inbound_nodes": [[["concatenate_10", 0, 0, {}]]]}, {"class_name": "Conv1D", "name": "conv1d_98", "config": {"dilation_rate": [1], "activation": "linear", "kernel_constraint": null, "kernel_size": [11], "trainable": true, "bias_initializer": {"class_name": "VarianceScaling", "config": {"mode": "fan_avg", "seed": null, "scale": 1.0, "distribution": "uniform"}}, "kernel_initializer": {"class_name": "VarianceScaling", "config": {"mode": "fan_avg", "seed": null, "scale": 1.0, "distribution": "uniform"}}, "use_bias": true, "bias_regularizer": null, "name": "conv1d_98", "filters": 64, "kernel_regularizer": null, "activity_regularizer": null, "bias_constraint": null, "padding": "same", "strides": [1]}, "inbound_nodes": [[["dropout_97", 0, 0, {}]]]}, {"class_name": "Conv1D", "name": "conv1d_54", "config": {"dilation_rate": [1], "activation": "linear", "kernel_constraint": null, "kernel_size": [1], "trainable": true, "bias_initializer": {"class_name": "VarianceScaling", "config": {"mode": "fan_avg", "seed": null, "scale": 1.0, "distribution": "uniform"}}, "kernel_initializer": {"class_name": "VarianceScaling", "config": {"mode": "fan_avg", "seed": null, "scale": 1.0, "distribution": "uniform"}}, "use_bias": true, "bias_regularizer": null, "name": "conv1d_54", "filters": 64, "kernel_regularizer": null, "activity_regularizer": null, "bias_constraint": null, "padding": "same", "strides": [1]}, "inbound_nodes": [[["concatenate_6", 0, 0, {}]]]}, {"class_name": "Conv1D", "name": "conv1d_58", "config": {"dilation_rate": [1], "activation": "linear", "kernel_constraint": null, "kernel_size": [11], "trainable": true, "bias_initializer": {"class_name": "VarianceScaling", "config": {"mode": "fan_avg", "seed": null, "scale": 1.0, "distribution": "uniform"}}, "kernel_initializer": {"class_name": "VarianceScaling", "config": {"mode": "fan_avg", "seed": null, "scale": 1.0, "distribution": "uniform"}}, "use_bias": true, "bias_regularizer": null, "name": "conv1d_58", "filters": 64, "kernel_regularizer": null, "activity_regularizer": null, "bias_constraint": null, "padding": "same", "strides": [1]}, "inbound_nodes": [[["dropout_57", 0, 0, {}]]]}, {"class_name": "Conv1D", "name": "conv1d_24", "config": {"dilation_rate": [1], "activation": "linear", "kernel_constraint": null, "kernel_size": [1], "trainable": true, "bias_initializer": {"class_name": "VarianceScaling", "config": {"mode": "fan_avg", "seed": null, "scale": 1.0, "distribution": "uniform"}}, "kernel_initializer": {"class_name": "VarianceScaling", "config": {"mode": "fan_avg", "seed": null, "scale": 1.0, "distribution": "uniform"}}, "use_bias": true, "bias_regularizer": null, "name": "conv1d_24", "filters": 64, "kernel_regularizer": null, "activity_regularizer": null, "bias_constraint": null, "padding": "same", "strides": [1]}, "inbound_nodes": [[["concatenate_3", 0, 0, {}]]]}, {"class_name": "Conv1D", "name": "conv1d_28", "config": {"dilation_rate": [1], "activation": "linear", "kernel_constraint": null, "kernel_size": [11], "trainable": true, "bias_initializer": {"class_name": "VarianceScaling", "config": {"mode": "fan_avg", "seed": null, "scale": 1.0, "distribution": "uniform"}}, "kernel_initializer": {"class_name": "VarianceScaling", "config": {"mode": "fan_avg", "seed": null, "scale": 1.0, "distribution": "uniform"}}, "use_bias": true, "bias_regularizer": null, "name": "conv1d_28", "filters": 64, "kernel_regularizer": null, "activity_regularizer": null, "bias_constraint": null, "padding": "same", "strides": [1]}, "inbound_nodes": [[["dropout_27", 0, 0, {}]]]}, {"class_name": "Conv1D", "name": "conv1d_4", "config": {"dilation_rate": [1], "activation": "linear", "kernel_constraint": null, "kernel_size": [1], "trainable": true, "bias_initializer": {"class_name": "VarianceScaling", "config": {"mode": "fan_avg", "seed": null, "scale": 1.0, "distribution": "uniform"}}, "kernel_initializer": {"class_name": "VarianceScaling", "config": {"mode": "fan_avg", "seed": null, "scale": 1.0, "distribution": "uniform"}}, "use_bias": true, "bias_regularizer": null, "name": "conv1d_4", "filters": 64, "kernel_regularizer": null, "activity_regularizer": null, "bias_constraint": null, "padding": "same", "strides": [1]}, "inbound_nodes": [[["concatenate_1", 0, 0, {}]]]}, {"class_name": "Conv1D", "name": "conv1d_8", "config": {"dilation_rate": [1], "activation": "linear", "kernel_constraint": null, "kernel_size": [11], "trainable": true, "bias_initializer": {"class_name": "VarianceScaling", "config": {"mode": "fan_avg", "seed": null, "scale": 1.0, "distribution": "uniform"}}, "kernel_initializer": {"class_name": "VarianceScaling", "config": {"mode": "fan_avg", "seed": null, "scale": 1.0, "distribution": "uniform"}}, "use_bias": true, "bias_regularizer": null, "name": "conv1d_8", "filters": 64, "kernel_regularizer": null, "activity_regularizer": null, "bias_constraint": null, "padding": "same", "strides": [1]}, "inbound_nodes": [[["dropout_7", 0, 0, {}]]]}, {"class_name": "BatchNormalization", "name": "batch_normalization_94", "config": {"moving_mean_initializer": {"class_name": "Zeros", "config": {}}, "gamma_constraint": null, "epsilon": 0.001, "beta_regularizer": null, "trainable": true, "beta_constraint": null, "center": true, "gamma_initializer": {"class_name": "Ones", "config": {}}, "name": "batch_normalization_94", "beta_initializer": {"class_name": "Zeros", "config": {}}, "moving_variance_initializer": {"class_name": "Ones", "config": {}}, "momentum": 0.99, "axis": -1, "scale": true, "gamma_regularizer": null}, "inbound_nodes": [[["conv1d_94", 0, 0, {}]]]}, {"class_name": "BatchNormalization", "name": "batch_normalization_98", "config": {"moving_mean_initializer": {"class_name": "Zeros", "config": {}}, "gamma_constraint": null, "epsilon": 0.001, "beta_regularizer": null, "trainable": true, "beta_constraint": null, "center": true, "gamma_initializer": {"class_name": "Ones", "config": {}}, "name": "batch_normalization_98", "beta_initializer": {"class_name": "Zeros", "config": {}}, "moving_variance_initializer": {"class_name": "Ones", "config": {}}, "momentum": 0.99, "axis": -1, "scale": true, "gamma_regularizer": null}, "inbound_nodes": [[["conv1d_98", 0, 0, {}]]]}, {"class_name": "BatchNormalization", "name": "batch_normalization_54", "config": {"moving_mean_initializer": {"class_name": "Zeros", "config": {}}, "gamma_constraint": null, "epsilon": 0.001, "beta_regularizer": null, "trainable": true, "beta_constraint": null, "center": true, "gamma_initializer": {"class_name": "Ones", "config": {}}, "name": "batch_normalization_54", "beta_initializer": {"class_name": "Zeros", "config": {}}, "moving_variance_initializer": {"class_name": "Ones", "config": {}}, "momentum": 0.99, "axis": -1, "scale": true, "gamma_regularizer": null}, "inbound_nodes": [[["conv1d_54", 0, 0, {}]]]}, {"class_name": "BatchNormalization", "name": "batch_normalization_58", "config": {"moving_mean_initializer": {"class_name": "Zeros", "config": {}}, "gamma_constraint": null, "epsilon": 0.001, "beta_regularizer": null, "trainable": true, "beta_constraint": null, "center": true, "gamma_initializer": {"class_name": "Ones", "config": {}}, "name": "batch_normalization_58", "beta_initializer": {"class_name": "Zeros", "config": {}}, "moving_variance_initializer": {"class_name": "Ones", "config": {}}, "momentum": 0.99, "axis": -1, "scale": true, "gamma_regularizer": null}, "inbound_nodes": [[["conv1d_58", 0, 0, {}]]]}, {"class_name": "BatchNormalization", "name": "batch_normalization_24", "config": {"moving_mean_initializer": {"class_name": "Zeros", "config": {}}, "gamma_constraint": null, "epsilon": 0.001, "beta_regularizer": null, "trainable": true, "beta_constraint": null, "center": true, "gamma_initializer": {"class_name": "Ones", "config": {}}, "name": "batch_normalization_24", "beta_initializer": {"class_name": "Zeros", "config": {}}, "moving_variance_initializer": {"class_name": "Ones", "config": {}}, "momentum": 0.99, "axis": -1, "scale": true, "gamma_regularizer": null}, "inbound_nodes": [[["conv1d_24", 0, 0, {}]]]}, {"class_name": "BatchNormalization", "name": "batch_normalization_28", "config": {"moving_mean_initializer": {"class_name": "Zeros", "config": {}}, "gamma_constraint": null, "epsilon": 0.001, "beta_regularizer": null, "trainable": true, "beta_constraint": null, "center": true, "gamma_initializer": {"class_name": "Ones", "config": {}}, "name": "batch_normalization_28", "beta_initializer": {"class_name": "Zeros", "config": {}}, "moving_variance_initializer": {"class_name": "Ones", "config": {}}, "momentum": 0.99, "axis": -1, "scale": true, "gamma_regularizer": null}, "inbound_nodes": [[["conv1d_28", 0, 0, {}]]]}, {"class_name": "BatchNormalization", "name": "batch_normalization_4", "config": {"moving_mean_initializer": {"class_name": "Zeros", "config": {}}, "gamma_constraint": null, "epsilon": 0.001, "beta_regularizer": null, "trainable": true, "beta_constraint": null, "center": true, "gamma_initializer": {"class_name": "Ones", "config": {}}, "name": "batch_normalization_4", "beta_initializer": {"class_name": "Zeros", "config": {}}, "moving_variance_initializer": {"class_name": "Ones", "config": {}}, "momentum": 0.99, "axis": -1, "scale": true, "gamma_regularizer": null}, "inbound_nodes": [[["conv1d_4", 0, 0, {}]]]}, {"class_name": "BatchNormalization", "name": "batch_normalization_8", "config": {"moving_mean_initializer": {"class_name": "Zeros", "config": {}}, "gamma_constraint": null, "epsilon": 0.001, "beta_regularizer": null, "trainable": true, "beta_constraint": null, "center": true, "gamma_initializer": {"class_name": "Ones", "config": {}}, "name": "batch_normalization_8", "beta_initializer": {"class_name": "Zeros", "config": {}}, "moving_variance_initializer": {"class_name": "Ones", "config": {}}, "momentum": 0.99, "axis": -1, "scale": true, "gamma_regularizer": null}, "inbound_nodes": [[["conv1d_8", 0, 0, {}]]]}, {"class_name": "Activation", "name": "activation_94", "config": {"activation": "relu", "name": "activation_94", "trainable": true}, "inbound_nodes": [[["batch_normalization_94", 0, 0, {}]]]}, {"class_name": "Activation", "name": "activation_98", "config": {"activation": "relu", "name": "activation_98", "trainable": true}, "inbound_nodes": [[["batch_normalization_98", 0, 0, {}]]]}, {"class_name": "Activation", "name": "activation_54", "config": {"activation": "relu", "name": "activation_54", "trainable": true}, "inbound_nodes": [[["batch_normalization_54", 0, 0, {}]]]}, {"class_name": "Activation", "name": "activation_58", "config": {"activation": "relu", "name": "activation_58", "trainable": true}, "inbound_nodes": [[["batch_normalization_58", 0, 0, {}]]]}, {"class_name": "Activation", "name": "activation_24", "config": {"activation": "relu", "name": "activation_24", "trainable": true}, "inbound_nodes": [[["batch_normalization_24", 0, 0, {}]]]}, {"class_name": "Activation", "name": "activation_28", "config": {"activation": "relu", "name": "activation_28", "trainable": true}, "inbound_nodes": [[["batch_normalization_28", 0, 0, {}]]]}, {"class_name": "Activation", "name": "activation_4", "config": {"activation": "relu", "name": "activation_4", "trainable": true}, "inbound_nodes": [[["batch_normalization_4", 0, 0, {}]]]}, {"class_name": "Activation", "name": "activation_8", "config": {"activation": "relu", "name": "activation_8", "trainable": true}, "inbound_nodes": [[["batch_normalization_8", 0, 0, {}]]]}, {"class_name": "Dropout", "name": "dropout_94", "config": {"rate": 0.45, "name": "dropout_94", "trainable": true}, "inbound_nodes": [[["activation_94", 0, 0, {}]]]}, {"class_name": "Dropout", "name": "dropout_98", "config": {"rate": 0.45, "name": "dropout_98", "trainable": true}, "inbound_nodes": [[["activation_98", 0, 0, {}]]]}, {"class_name": "Dropout", "name": "dropout_54", "config": {"rate": 0.45, "name": "dropout_54", "trainable": true}, "inbound_nodes": [[["activation_54", 0, 0, {}]]]}, {"class_name": "Dropout", "name": "dropout_58", "config": {"rate": 0.45, "name": "dropout_58", "trainable": true}, "inbound_nodes": [[["activation_58", 0, 0, {}]]]}, {"class_name": "Dropout", "name": "dropout_24", "config": {"rate": 0.45, "name": "dropout_24", "trainable": true}, "inbound_nodes": [[["activation_24", 0, 0, {}]]]}, {"class_name": "Dropout", "name": "dropout_28", "config": {"rate": 0.45, "name": "dropout_28", "trainable": true}, "inbound_nodes": [[["activation_28", 0, 0, {}]]]}, {"class_name": "Dropout", "name": "dropout_4", "config": {"rate": 0.45, "name": "dropout_4", "trainable": true}, "inbound_nodes": [[["activation_4", 0, 0, {}]]]}, {"class_name": "Dropout", "name": "dropout_8", "config": {"rate": 0.45, "name": "dropout_8", "trainable": true}, "inbound_nodes": [[["activation_8", 0, 0, {}]]]}, {"class_name": "Conv1D", "name": "conv1d_92", "config": {"dilation_rate": [1], "activation": "linear", "kernel_constraint": null, "kernel_size": [1], "trainable": true, "bias_initializer": {"class_name": "VarianceScaling", "config": {"mode": "fan_avg", "seed": null, "scale": 1.0, "distribution": "uniform"}}, "kernel_initializer": {"class_name": "VarianceScaling", "config": {"mode": "fan_avg", "seed": null, "scale": 1.0, "distribution": "uniform"}}, "use_bias": true, "bias_regularizer": null, "name": "conv1d_92", "filters": 64, "kernel_regularizer": null, "activity_regularizer": null, "bias_constraint": null, "padding": "same", "strides": [1]}, "inbound_nodes": [[["concatenate_10", 0, 0, {}]]]}, {"class_name": "Conv1D", "name": "conv1d_95", "config": {"dilation_rate": [1], "activation": "linear", "kernel_constraint": null, "kernel_size": [7], "trainable": true, "bias_initializer": {"class_name": "VarianceScaling", "config": {"mode": "fan_avg", "seed": null, "scale": 1.0, "distribution": "uniform"}}, "kernel_initializer": {"class_name": "VarianceScaling", "config": {"mode": "fan_avg", "seed": null, "scale": 1.0, "distribution": "uniform"}}, "use_bias": true, "bias_regularizer": null, "name": "conv1d_95", "filters": 64, "kernel_regularizer": null, "activity_regularizer": null, "bias_constraint": null, "padding": "same", "strides": [1]}, "inbound_nodes": [[["dropout_94", 0, 0, {}]]]}, {"class_name": "Conv1D", "name": "conv1d_99", "config": {"dilation_rate": [1], "activation": "linear", "kernel_constraint": null, "kernel_size": [11], "trainable": true, "bias_initializer": {"class_name": "VarianceScaling", "config": {"mode": "fan_avg", "seed": null, "scale": 1.0, "distribution": "uniform"}}, "kernel_initializer": {"class_name": "VarianceScaling", "config": {"mode": "fan_avg", "seed": null, "scale": 1.0, "distribution": "uniform"}}, "use_bias": true, "bias_regularizer": null, "name": "conv1d_99", "filters": 64, "kernel_regularizer": null, "activity_regularizer": null, "bias_constraint": null, "padding": "same", "strides": [1]}, "inbound_nodes": [[["dropout_98", 0, 0, {}]]]}, {"class_name": "Conv1D", "name": "conv1d_52", "config": {"dilation_rate": [1], "activation": "linear", "kernel_constraint": null, "kernel_size": [1], "trainable": true, "bias_initializer": {"class_name": "VarianceScaling", "config": {"mode": "fan_avg", "seed": null, "scale": 1.0, "distribution": "uniform"}}, "kernel_initializer": {"class_name": "VarianceScaling", "config": {"mode": "fan_avg", "seed": null, "scale": 1.0, "distribution": "uniform"}}, "use_bias": true, "bias_regularizer": null, "name": "conv1d_52", "filters": 64, "kernel_regularizer": null, "activity_regularizer": null, "bias_constraint": null, "padding": "same", "strides": [1]}, "inbound_nodes": [[["concatenate_6", 0, 0, {}]]]}, {"class_name": "Conv1D", "name": "conv1d_55", "config": {"dilation_rate": [1], "activation": "linear", "kernel_constraint": null, "kernel_size": [7], "trainable": true, "bias_initializer": {"class_name": "VarianceScaling", "config": {"mode": "fan_avg", "seed": null, "scale": 1.0, "distribution": "uniform"}}, "kernel_initializer": {"class_name": "VarianceScaling", "config": {"mode": "fan_avg", "seed": null, "scale": 1.0, "distribution": "uniform"}}, "use_bias": true, "bias_regularizer": null, "name": "conv1d_55", "filters": 64, "kernel_regularizer": null, "activity_regularizer": null, "bias_constraint": null, "padding": "same", "strides": [1]}, "inbound_nodes": [[["dropout_54", 0, 0, {}]]]}, {"class_name": "Conv1D", "name": "conv1d_59", "config": {"dilation_rate": [1], "activation": "linear", "kernel_constraint": null, "kernel_size": [11], "trainable": true, "bias_initializer": {"class_name": "VarianceScaling", "config": {"mode": "fan_avg", "seed": null, "scale": 1.0, "distribution": "uniform"}}, "kernel_initializer": {"class_name": "VarianceScaling", "config": {"mode": "fan_avg", "seed": null, "scale": 1.0, "distribution": "uniform"}}, "use_bias": true, "bias_regularizer": null, "name": "conv1d_59", "filters": 64, "kernel_regularizer": null, "activity_regularizer": null, "bias_constraint": null, "padding": "same", "strides": [1]}, "inbound_nodes": [[["dropout_58", 0, 0, {}]]]}, {"class_name": "Conv1D", "name": "conv1d_22", "config": {"dilation_rate": [1], "activation": "linear", "kernel_constraint": null, "kernel_size": [1], "trainable": true, "bias_initializer": {"class_name": "VarianceScaling", "config": {"mode": "fan_avg", "seed": null, "scale": 1.0, "distribution": "uniform"}}, "kernel_initializer": {"class_name": "VarianceScaling", "config": {"mode": "fan_avg", "seed": null, "scale": 1.0, "distribution": "uniform"}}, "use_bias": true, "bias_regularizer": null, "name": "conv1d_22", "filters": 64, "kernel_regularizer": null, "activity_regularizer": null, "bias_constraint": null, "padding": "same", "strides": [1]}, "inbound_nodes": [[["concatenate_3", 0, 0, {}]]]}, {"class_name": "Conv1D", "name": "conv1d_25", "config": {"dilation_rate": [1], "activation": "linear", "kernel_constraint": null, "kernel_size": [7], "trainable": true, "bias_initializer": {"class_name": "VarianceScaling", "config": {"mode": "fan_avg", "seed": null, "scale": 1.0, "distribution": "uniform"}}, "kernel_initializer": {"class_name": "VarianceScaling", "config": {"mode": "fan_avg", "seed": null, "scale": 1.0, "distribution": "uniform"}}, "use_bias": true, "bias_regularizer": null, "name": "conv1d_25", "filters": 64, "kernel_regularizer": null, "activity_regularizer": null, "bias_constraint": null, "padding": "same", "strides": [1]}, "inbound_nodes": [[["dropout_24", 0, 0, {}]]]}, {"class_name": "Conv1D", "name": "conv1d_29", "config": {"dilation_rate": [1], "activation": "linear", "kernel_constraint": null, "kernel_size": [11], "trainable": true, "bias_initializer": {"class_name": "VarianceScaling", "config": {"mode": "fan_avg", "seed": null, "scale": 1.0, "distribution": "uniform"}}, "kernel_initializer": {"class_name": "VarianceScaling", "config": {"mode": "fan_avg", "seed": null, "scale": 1.0, "distribution": "uniform"}}, "use_bias": true, "bias_regularizer": null, "name": "conv1d_29", "filters": 64, "kernel_regularizer": null, "activity_regularizer": null, "bias_constraint": null, "padding": "same", "strides": [1]}, "inbound_nodes": [[["dropout_28", 0, 0, {}]]]}, {"class_name": "Conv1D", "name": "conv1d_2", "config": {"dilation_rate": [1], "activation": "linear", "kernel_constraint": null, "kernel_size": [1], "trainable": true, "bias_initializer": {"class_name": "VarianceScaling", "config": {"mode": "fan_avg", "seed": null, "scale": 1.0, "distribution": "uniform"}}, "kernel_initializer": {"class_name": "VarianceScaling", "config": {"mode": "fan_avg", "seed": null, "scale": 1.0, "distribution": "uniform"}}, "use_bias": true, "bias_regularizer": null, "name": "conv1d_2", "filters": 64, "kernel_regularizer": null, "activity_regularizer": null, "bias_constraint": null, "padding": "same", "strides": [1]}, "inbound_nodes": [[["concatenate_1", 0, 0, {}]]]}, {"class_name": "Conv1D", "name": "conv1d_5", "config": {"dilation_rate": [1], "activation": "linear", "kernel_constraint": null, "kernel_size": [7], "trainable": true, "bias_initializer": {"class_name": "VarianceScaling", "config": {"mode": "fan_avg", "seed": null, "scale": 1.0, "distribution": "uniform"}}, "kernel_initializer": {"class_name": "VarianceScaling", "config": {"mode": "fan_avg", "seed": null, "scale": 1.0, "distribution": "uniform"}}, "use_bias": true, "bias_regularizer": null, "name": "conv1d_5", "filters": 64, "kernel_regularizer": null, "activity_regularizer": null, "bias_constraint": null, "padding": "same", "strides": [1]}, "inbound_nodes": [[["dropout_4", 0, 0, {}]]]}, {"class_name": "Conv1D", "name": "conv1d_9", "config": {"dilation_rate": [1], "activation": "linear", "kernel_constraint": null, "kernel_size": [11], "trainable": true, "bias_initializer": {"class_name": "VarianceScaling", "config": {"mode": "fan_avg", "seed": null, "scale": 1.0, "distribution": "uniform"}}, "kernel_initializer": {"class_name": "VarianceScaling", "config": {"mode": "fan_avg", "seed": null, "scale": 1.0, "distribution": "uniform"}}, "use_bias": true, "bias_regularizer": null, "name": "conv1d_9", "filters": 64, "kernel_regularizer": null, "activity_regularizer": null, "bias_constraint": null, "padding": "same", "strides": [1]}, "inbound_nodes": [[["dropout_8", 0, 0, {}]]]}, {"class_name": "BatchNormalization", "name": "batch_normalization_92", "config": {"moving_mean_initializer": {"class_name": "Zeros", "config": {}}, "gamma_constraint": null, "epsilon": 0.001, "beta_regularizer": null, "trainable": true, "beta_constraint": null, "center": true, "gamma_initializer": {"class_name": "Ones", "config": {}}, "name": "batch_normalization_92", "beta_initializer": {"class_name": "Zeros", "config": {}}, "moving_variance_initializer": {"class_name": "Ones", "config": {}}, "momentum": 0.99, "axis": -1, "scale": true, "gamma_regularizer": null}, "inbound_nodes": [[["conv1d_92", 0, 0, {}]]]}, {"class_name": "BatchNormalization", "name": "batch_normalization_95", "config": {"moving_mean_initializer": {"class_name": "Zeros", "config": {}}, "gamma_constraint": null, "epsilon": 0.001, "beta_regularizer": null, "trainable": true, "beta_constraint": null, "center": true, "gamma_initializer": {"class_name": "Ones", "config": {}}, "name": "batch_normalization_95", "beta_initializer": {"class_name": "Zeros", "config": {}}, "moving_variance_initializer": {"class_name": "Ones", "config": {}}, "momentum": 0.99, "axis": -1, "scale": true, "gamma_regularizer": null}, "inbound_nodes": [[["conv1d_95", 0, 0, {}]]]}, {"class_name": "BatchNormalization", "name": "batch_normalization_99", "config": {"moving_mean_initializer": {"class_name": "Zeros", "config": {}}, "gamma_constraint": null, "epsilon": 0.001, "beta_regularizer": null, "trainable": true, "beta_constraint": null, "center": true, "gamma_initializer": {"class_name": "Ones", "config": {}}, "name": "batch_normalization_99", "beta_initializer": {"class_name": "Zeros", "config": {}}, "moving_variance_initializer": {"class_name": "Ones", "config": {}}, "momentum": 0.99, "axis": -1, "scale": true, "gamma_regularizer": null}, "inbound_nodes": [[["conv1d_99", 0, 0, {}]]]}, {"class_name": "BatchNormalization", "name": "batch_normalization_52", "config": {"moving_mean_initializer": {"class_name": "Zeros", "config": {}}, "gamma_constraint": null, "epsilon": 0.001, "beta_regularizer": null, "trainable": true, "beta_constraint": null, "center": true, "gamma_initializer": {"class_name": "Ones", "config": {}}, "name": "batch_normalization_52", "beta_initializer": {"class_name": "Zeros", "config": {}}, "moving_variance_initializer": {"class_name": "Ones", "config": {}}, "momentum": 0.99, "axis": -1, "scale": true, "gamma_regularizer": null}, "inbound_nodes": [[["conv1d_52", 0, 0, {}]]]}, {"class_name": "BatchNormalization", "name": "batch_normalization_55", "config": {"moving_mean_initializer": {"class_name": "Zeros", "config": {}}, "gamma_constraint": null, "epsilon": 0.001, "beta_regularizer": null, "trainable": true, "beta_constraint": null, "center": true, "gamma_initializer": {"class_name": "Ones", "config": {}}, "name": "batch_normalization_55", "beta_initializer": {"class_name": "Zeros", "config": {}}, "moving_variance_initializer": {"class_name": "Ones", "config": {}}, "momentum": 0.99, "axis": -1, "scale": true, "gamma_regularizer": null}, "inbound_nodes": [[["conv1d_55", 0, 0, {}]]]}, {"class_name": "BatchNormalization", "name": "batch_normalization_59", "config": {"moving_mean_initializer": {"class_name": "Zeros", "config": {}}, "gamma_constraint": null, "epsilon": 0.001, "beta_regularizer": null, "trainable": true, "beta_constraint": null, "center": true, "gamma_initializer": {"class_name": "Ones", "config": {}}, "name": "batch_normalization_59", "beta_initializer": {"class_name": "Zeros", "config": {}}, "moving_variance_initializer": {"class_name": "Ones", "config": {}}, "momentum": 0.99, "axis": -1, "scale": true, "gamma_regularizer": null}, "inbound_nodes": [[["conv1d_59", 0, 0, {}]]]}, {"class_name": "BatchNormalization", "name": "batch_normalization_22", "config": {"moving_mean_initializer": {"class_name": "Zeros", "config": {}}, "gamma_constraint": null, "epsilon": 0.001, "beta_regularizer": null, "trainable": true, "beta_constraint": null, "center": true, "gamma_initializer": {"class_name": "Ones", "config": {}}, "name": "batch_normalization_22", "beta_initializer": {"class_name": "Zeros", "config": {}}, "moving_variance_initializer": {"class_name": "Ones", "config": {}}, "momentum": 0.99, "axis": -1, "scale": true, "gamma_regularizer": null}, "inbound_nodes": [[["conv1d_22", 0, 0, {}]]]}, {"class_name": "BatchNormalization", "name": "batch_normalization_25", "config": {"moving_mean_initializer": {"class_name": "Zeros", "config": {}}, "gamma_constraint": null, "epsilon": 0.001, "beta_regularizer": null, "trainable": true, "beta_constraint": null, "center": true, "gamma_initializer": {"class_name": "Ones", "config": {}}, "name": "batch_normalization_25", "beta_initializer": {"class_name": "Zeros", "config": {}}, "moving_variance_initializer": {"class_name": "Ones", "config": {}}, "momentum": 0.99, "axis": -1, "scale": true, "gamma_regularizer": null}, "inbound_nodes": [[["conv1d_25", 0, 0, {}]]]}, {"class_name": "BatchNormalization", "name": "batch_normalization_29", "config": {"moving_mean_initializer": {"class_name": "Zeros", "config": {}}, "gamma_constraint": null, "epsilon": 0.001, "beta_regularizer": null, "trainable": true, "beta_constraint": null, "center": true, "gamma_initializer": {"class_name": "Ones", "config": {}}, "name": "batch_normalization_29", "beta_initializer": {"class_name": "Zeros", "config": {}}, "moving_variance_initializer": {"class_name": "Ones", "config": {}}, "momentum": 0.99, "axis": -1, "scale": true, "gamma_regularizer": null}, "inbound_nodes": [[["conv1d_29", 0, 0, {}]]]}, {"class_name": "BatchNormalization", "name": "batch_normalization_2", "config": {"moving_mean_initializer": {"class_name": "Zeros", "config": {}}, "gamma_constraint": null, "epsilon": 0.001, "beta_regularizer": null, "trainable": true, "beta_constraint": null, "center": true, "gamma_initializer": {"class_name": "Ones", "config": {}}, "name": "batch_normalization_2", "beta_initializer": {"class_name": "Zeros", "config": {}}, "moving_variance_initializer": {"class_name": "Ones", "config": {}}, "momentum": 0.99, "axis": -1, "scale": true, "gamma_regularizer": null}, "inbound_nodes": [[["conv1d_2", 0, 0, {}]]]}, {"class_name": "BatchNormalization", "name": "batch_normalization_5", "config": {"moving_mean_initializer": {"class_name": "Zeros", "config": {}}, "gamma_constraint": null, "epsilon": 0.001, "beta_regularizer": null, "trainable": true, "beta_constraint": null, "center": true, "gamma_initializer": {"class_name": "Ones", "config": {}}, "name": "batch_normalization_5", "beta_initializer": {"class_name": "Zeros", "config": {}}, "moving_variance_initializer": {"class_name": "Ones", "config": {}}, "momentum": 0.99, "axis": -1, "scale": true, "gamma_regularizer": null}, "inbound_nodes": [[["conv1d_5", 0, 0, {}]]]}, {"class_name": "BatchNormalization", "name": "batch_normalization_9", "config": {"moving_mean_initializer": {"class_name": "Zeros", "config": {}}, "gamma_constraint": null, "epsilon": 0.001, "beta_regularizer": null, "trainable": true, "beta_constraint": null, "center": true, "gamma_initializer": {"class_name": "Ones", "config": {}}, "name": "batch_normalization_9", "beta_initializer": {"class_name": "Zeros", "config": {}}, "moving_variance_initializer": {"class_name": "Ones", "config": {}}, "momentum": 0.99, "axis": -1, "scale": true, "gamma_regularizer": null}, "inbound_nodes": [[["conv1d_9", 0, 0, {}]]]}, {"class_name": "Activation", "name": "activation_92", "config": {"activation": "relu", "name": "activation_92", "trainable": true}, "inbound_nodes": [[["batch_normalization_92", 0, 0, {}]]]}, {"class_name": "Activation", "name": "activation_95", "config": {"activation": "relu", "name": "activation_95", "trainable": true}, "inbound_nodes": [[["batch_normalization_95", 0, 0, {}]]]}, {"class_name": "Activation", "name": "activation_99", "config": {"activation": "relu", "name": "activation_99", "trainable": true}, "inbound_nodes": [[["batch_normalization_99", 0, 0, {}]]]}, {"class_name": "Activation", "name": "activation_52", "config": {"activation": "relu", "name": "activation_52", "trainable": true}, "inbound_nodes": [[["batch_normalization_52", 0, 0, {}]]]}, {"class_name": "Activation", "name": "activation_55", "config": {"activation": "relu", "name": "activation_55", "trainable": true}, "inbound_nodes": [[["batch_normalization_55", 0, 0, {}]]]}, {"class_name": "Activation", "name": "activation_59", "config": {"activation": "relu", "name": "activation_59", "trainable": true}, "inbound_nodes": [[["batch_normalization_59", 0, 0, {}]]]}, {"class_name": "Activation", "name": "activation_22", "config": {"activation": "relu", "name": "activation_22", "trainable": true}, "inbound_nodes": [[["batch_normalization_22", 0, 0, {}]]]}, {"class_name": "Activation", "name": "activation_25", "config": {"activation": "relu", "name": "activation_25", "trainable": true}, "inbound_nodes": [[["batch_normalization_25", 0, 0, {}]]]}, {"class_name": "Activation", "name": "activation_29", "config": {"activation": "relu", "name": "activation_29", "trainable": true}, "inbound_nodes": [[["batch_normalization_29", 0, 0, {}]]]}, {"class_name": "Activation", "name": "activation_2", "config": {"activation": "relu", "name": "activation_2", "trainable": true}, "inbound_nodes": [[["batch_normalization_2", 0, 0, {}]]]}, {"class_name": "Activation", "name": "activation_5", "config": {"activation": "relu", "name": "activation_5", "trainable": true}, "inbound_nodes": [[["batch_normalization_5", 0, 0, {}]]]}, {"class_name": "Activation", "name": "activation_9", "config": {"activation": "relu", "name": "activation_9", "trainable": true}, "inbound_nodes": [[["batch_normalization_9", 0, 0, {}]]]}, {"class_name": "Dropout", "name": "dropout_92", "config": {"rate": 0.45, "name": "dropout_92", "trainable": true}, "inbound_nodes": [[["activation_92", 0, 0, {}]]]}, {"class_name": "Dropout", "name": "dropout_95", "config": {"rate": 0.45, "name": "dropout_95", "trainable": true}, "inbound_nodes": [[["activation_95", 0, 0, {}]]]}, {"class_name": "Dropout", "name": "dropout_99", "config": {"rate": 0.45, "name": "dropout_99", "trainable": true}, "inbound_nodes": [[["activation_99", 0, 0, {}]]]}, {"class_name": "Dropout", "name": "dropout_52", "config": {"rate": 0.45, "name": "dropout_52", "trainable": true}, "inbound_nodes": [[["activation_52", 0, 0, {}]]]}, {"class_name": "Dropout", "name": "dropout_55", "config": {"rate": 0.45, "name": "dropout_55", "trainable": true}, "inbound_nodes": [[["activation_55", 0, 0, {}]]]}, {"class_name": "Dropout", "name": "dropout_59", "config": {"rate": 0.45, "name": "dropout_59", "trainable": true}, "inbound_nodes": [[["activation_59", 0, 0, {}]]]}, {"class_name": "Dropout", "name": "dropout_22", "config": {"rate": 0.45, "name": "dropout_22", "trainable": true}, "inbound_nodes": [[["activation_22", 0, 0, {}]]]}, {"class_name": "Dropout", "name": "dropout_25", "config": {"rate": 0.45, "name": "dropout_25", "trainable": true}, "inbound_nodes": [[["activation_25", 0, 0, {}]]]}, {"class_name": "Dropout", "name": "dropout_29", "config": {"rate": 0.45, "name": "dropout_29", "trainable": true}, "inbound_nodes": [[["activation_29", 0, 0, {}]]]}, {"class_name": "Dropout", "name": "dropout_2", "config": {"rate": 0.45, "name": "dropout_2", "trainable": true}, "inbound_nodes": [[["activation_2", 0, 0, {}]]]}, {"class_name": "Dropout", "name": "dropout_5", "config": {"rate": 0.45, "name": "dropout_5", "trainable": true}, "inbound_nodes": [[["activation_5", 0, 0, {}]]]}, {"class_name": "Dropout", "name": "dropout_9", "config": {"rate": 0.45, "name": "dropout_9", "trainable": true}, "inbound_nodes": [[["activation_9", 0, 0, {}]]]}, {"class_name": "Conv1D", "name": "conv1d_91", "config": {"dilation_rate": [1], "activation": "linear", "kernel_constraint": null, "kernel_size": [1], "trainable": true, "bias_initializer": {"class_name": "VarianceScaling", "config": {"mode": "fan_avg", "seed": null, "scale": 1.0, "distribution": "uniform"}}, "kernel_initializer": {"class_name": "VarianceScaling", "config": {"mode": "fan_avg", "seed": null, "scale": 1.0, "distribution": "uniform"}}, "use_bias": true, "bias_regularizer": null, "name": "conv1d_91", "filters": 64, "kernel_regularizer": null, "activity_regularizer": null, "bias_constraint": null, "padding": "same", "strides": [1]}, "inbound_nodes": [[["concatenate_10", 0, 0, {}]]]}, {"class_name": "Conv1D", "name": "conv1d_93", "config": {"dilation_rate": [1], "activation": "linear", "kernel_constraint": null, "kernel_size": [3], "trainable": true, "bias_initializer": {"class_name": "VarianceScaling", "config": {"mode": "fan_avg", "seed": null, "scale": 1.0, "distribution": "uniform"}}, "kernel_initializer": {"class_name": "VarianceScaling", "config": {"mode": "fan_avg", "seed": null, "scale": 1.0, "distribution": "uniform"}}, "use_bias": true, "bias_regularizer": null, "name": "conv1d_93", "filters": 64, "kernel_regularizer": null, "activity_regularizer": null, "bias_constraint": null, "padding": "same", "strides": [1]}, "inbound_nodes": [[["dropout_92", 0, 0, {}]]]}, {"class_name": "Conv1D", "name": "conv1d_96", "config": {"dilation_rate": [1], "activation": "linear", "kernel_constraint": null, "kernel_size": [7], "trainable": true, "bias_initializer": {"class_name": "VarianceScaling", "config": {"mode": "fan_avg", "seed": null, "scale": 1.0, "distribution": "uniform"}}, "kernel_initializer": {"class_name": "VarianceScaling", "config": {"mode": "fan_avg", "seed": null, "scale": 1.0, "distribution": "uniform"}}, "use_bias": true, "bias_regularizer": null, "name": "conv1d_96", "filters": 64, "kernel_regularizer": null, "activity_regularizer": null, "bias_constraint": null, "padding": "same", "strides": [1]}, "inbound_nodes": [[["dropout_95", 0, 0, {}]]]}, {"class_name": "Conv1D", "name": "conv1d_100", "config": {"dilation_rate": [1], "activation": "linear", "kernel_constraint": null, "kernel_size": [11], "trainable": true, "bias_initializer": {"class_name": "VarianceScaling", "config": {"mode": "fan_avg", "seed": null, "scale": 1.0, "distribution": "uniform"}}, "kernel_initializer": {"class_name": "VarianceScaling", "config": {"mode": "fan_avg", "seed": null, "scale": 1.0, "distribution": "uniform"}}, "use_bias": true, "bias_regularizer": null, "name": "conv1d_100", "filters": 64, "kernel_regularizer": null, "activity_regularizer": null, "bias_constraint": null, "padding": "same", "strides": [1]}, "inbound_nodes": [[["dropout_99", 0, 0, {}]]]}, {"class_name": "Conv1D", "name": "conv1d_51", "config": {"dilation_rate": [1], "activation": "linear", "kernel_constraint": null, "kernel_size": [1], "trainable": true, "bias_initializer": {"class_name": "VarianceScaling", "config": {"mode": "fan_avg", "seed": null, "scale": 1.0, "distribution": "uniform"}}, "kernel_initializer": {"class_name": "VarianceScaling", "config": {"mode": "fan_avg", "seed": null, "scale": 1.0, "distribution": "uniform"}}, "use_bias": true, "bias_regularizer": null, "name": "conv1d_51", "filters": 64, "kernel_regularizer": null, "activity_regularizer": null, "bias_constraint": null, "padding": "same", "strides": [1]}, "inbound_nodes": [[["concatenate_6", 0, 0, {}]]]}, {"class_name": "Conv1D", "name": "conv1d_53", "config": {"dilation_rate": [1], "activation": "linear", "kernel_constraint": null, "kernel_size": [3], "trainable": true, "bias_initializer": {"class_name": "VarianceScaling", "config": {"mode": "fan_avg", "seed": null, "scale": 1.0, "distribution": "uniform"}}, "kernel_initializer": {"class_name": "VarianceScaling", "config": {"mode": "fan_avg", "seed": null, "scale": 1.0, "distribution": "uniform"}}, "use_bias": true, "bias_regularizer": null, "name": "conv1d_53", "filters": 64, "kernel_regularizer": null, "activity_regularizer": null, "bias_constraint": null, "padding": "same", "strides": [1]}, "inbound_nodes": [[["dropout_52", 0, 0, {}]]]}, {"class_name": "Conv1D", "name": "conv1d_56", "config": {"dilation_rate": [1], "activation": "linear", "kernel_constraint": null, "kernel_size": [7], "trainable": true, "bias_initializer": {"class_name": "VarianceScaling", "config": {"mode": "fan_avg", "seed": null, "scale": 1.0, "distribution": "uniform"}}, "kernel_initializer": {"class_name": "VarianceScaling", "config": {"mode": "fan_avg", "seed": null, "scale": 1.0, "distribution": "uniform"}}, "use_bias": true, "bias_regularizer": null, "name": "conv1d_56", "filters": 64, "kernel_regularizer": null, "activity_regularizer": null, "bias_constraint": null, "padding": "same", "strides": [1]}, "inbound_nodes": [[["dropout_55", 0, 0, {}]]]}, {"class_name": "Conv1D", "name": "conv1d_60", "config": {"dilation_rate": [1], "activation": "linear", "kernel_constraint": null, "kernel_size": [11], "trainable": true, "bias_initializer": {"class_name": "VarianceScaling", "config": {"mode": "fan_avg", "seed": null, "scale": 1.0, "distribution": "uniform"}}, "kernel_initializer": {"class_name": "VarianceScaling", "config": {"mode": "fan_avg", "seed": null, "scale": 1.0, "distribution": "uniform"}}, "use_bias": true, "bias_regularizer": null, "name": "conv1d_60", "filters": 64, "kernel_regularizer": null, "activity_regularizer": null, "bias_constraint": null, "padding": "same", "strides": [1]}, "inbound_nodes": [[["dropout_59", 0, 0, {}]]]}, {"class_name": "Conv1D", "name": "conv1d_21", "config": {"dilation_rate": [1], "activation": "linear", "kernel_constraint": null, "kernel_size": [1], "trainable": true, "bias_initializer": {"class_name": "VarianceScaling", "config": {"mode": "fan_avg", "seed": null, "scale": 1.0, "distribution": "uniform"}}, "kernel_initializer": {"class_name": "VarianceScaling", "config": {"mode": "fan_avg", "seed": null, "scale": 1.0, "distribution": "uniform"}}, "use_bias": true, "bias_regularizer": null, "name": "conv1d_21", "filters": 64, "kernel_regularizer": null, "activity_regularizer": null, "bias_constraint": null, "padding": "same", "strides": [1]}, "inbound_nodes": [[["concatenate_3", 0, 0, {}]]]}, {"class_name"…
near", "kernel_constraint": null, "kernel_size": [7], "trainable": true, "bias_initializer": {"class_name": "VarianceScaling", "config": {"mode": "fan_avg", "seed": null, "scale": 1.0, "distribution": "uniform"}}, "kernel_initializer": {"class_name": "VarianceScaling", "config": {"mode": "fan_avg", "seed": null, "scale": 1.0, "distribution": "uniform"}}, "use_bias": true, "bias_regularizer": null, "name": "conv1d_195", "filters": 64, "kernel_regularizer": null, "activity_regularizer": null, "bias_constraint": null, "padding": "same", "strides": [1]}, "inbound_nodes": [[["dropout_194", 0, 0, {}]]]}, {"class_name": "Conv1D", "name": "conv1d_199", "config": {"dilation_rate": [1], "activation": "linear", "kernel_constraint": null, "kernel_size": [11], "trainable": true, "bias_initializer": {"class_name": "VarianceScaling", "config": {"mode": "fan_avg", "seed": null, "scale": 1.0, "distribution": "uniform"}}, "kernel_initializer": {"class_name": "VarianceScaling", "config": {"mode": "fan_avg", "seed": null, "scale": 1.0, "distribution": "uniform"}}, "use_bias": true, "bias_regularizer": null, "name": "conv1d_199", "filters": 64, "kernel_regularizer": null, "activity_regularizer": null, "bias_constraint": null, "padding": "same", "strides": [1]}, "inbound_nodes": [[["dropout_198", 0, 0, {}]]]}, {"class_name": "Conv1D", "name": "conv1d_152", "config": {"dilation_rate": [1], "activation": "linear", "kernel_constraint": null, "kernel_size": [1], "trainable": true, "bias_initializer": {"class_name": "VarianceScaling", "config": {"mode": "fan_avg", "seed": null, "scale": 1.0, "distribution": "uniform"}}, "kernel_initializer": {"class_name": "VarianceScaling", "config": {"mode": "fan_avg", "seed": null, "scale": 1.0, "distribution": "uniform"}}, "use_bias": true, "bias_regularizer": null, "name": "conv1d_152", "filters": 64, "kernel_regularizer": null, "activity_regularizer": null, "bias_constraint": null, "padding": "same", "strides": [1]}, "inbound_nodes": [[["concatenate_17", 0, 0, {}]]]}, {"class_name": "Conv1D", "name": "conv1d_155", "config": {"dilation_rate": [1], "activation": "linear", "kernel_constraint": null, "kernel_size": [7], "trainable": true, "bias_initializer": {"class_name": "VarianceScaling", "config": {"mode": "fan_avg", "seed": null, "scale": 1.0, "distribution": "uniform"}}, "kernel_initializer": {"class_name": "VarianceScaling", "config": {"mode": "fan_avg", "seed": null, "scale": 1.0, "distribution": "uniform"}}, "use_bias": true, "bias_regularizer": null, "name": "conv1d_155", "filters": 64, "kernel_regularizer": null, "activity_regularizer": null, "bias_constraint": null, "padding": "same", "strides": [1]}, "inbound_nodes": [[["dropout_154", 0, 0, {}]]]}, {"class_name": "Conv1D", "name": "conv1d_159", "config": {"dilation_rate": [1], "activation": "linear", "kernel_constraint": null, "kernel_size": [11], "trainable": true, "bias_initializer": {"class_name": "VarianceScaling", "config": {"mode": "fan_avg", "seed": null, "scale": 1.0, "distribution": "uniform"}}, "kernel_initializer": {"class_name": "VarianceScaling", "config": {"mode": "fan_avg", "seed": null, "scale": 1.0, "distribution": "uniform"}}, "use_bias": true, "bias_regularizer": null, "name": "conv1d_159", "filters": 64, "kernel_regularizer": null, "activity_regularizer": null, "bias_constraint": null, "padding": "same", "strides": [1]}, "inbound_nodes": [[["dropout_158", 0, 0, {}]]]}, {"class_name": "Conv1D", "name": "conv1d_122", "config": {"dilation_rate": [1], "activation": "linear", "kernel_constraint": null, "kernel_size": [1], "trainable": true, "bias_initializer": {"class_name": "VarianceScaling", "config": {"mode": "fan_avg", "seed": null, "scale": 1.0, "distribution": "uniform"}}, "kernel_initializer": {"class_name": "VarianceScaling", "config": {"mode": "fan_avg", "seed": null, "scale": 1.0, "distribution": "uniform"}}, "use_bias": true, "bias_regularizer": null, "name": "conv1d_122", "filters": 64, "kernel_regularizer": null, "activity_regularizer": null, "bias_constraint": null, "padding": "same", "strides": [1]}, "inbound_nodes": [[["concatenate_14", 0, 0, {}]]]}, {"class_name": "Conv1D", "name": "conv1d_125", "config": {"dilation_rate": [1], "activation": "linear", "kernel_constraint": null, "kernel_size": [7], "trainable": true, "bias_initializer": {"class_name": "VarianceScaling", "config": {"mode": "fan_avg", "seed": null, "scale": 1.0, "distribution": "uniform"}}, "kernel_initializer": {"class_name": "VarianceScaling", "config": {"mode": "fan_avg", "seed": null, "scale": 1.0, "distribution": "uniform"}}, "use_bias": true, "bias_regularizer": null, "name": "conv1d_125", "filters": 64, "kernel_regularizer": null, "activity_regularizer": null, "bias_constraint": null, "padding": "same", "strides": [1]}, "inbound_nodes": [[["dropout_124", 0, 0, {}]]]}, {"class_name": "Conv1D", "name": "conv1d_129", "config": {"dilation_rate": [1], "activation": "linear", "kernel_constraint": null, "kernel_size": [11], "trainable": true, "bias_initializer": {"class_name": "VarianceScaling", "config": {"mode": "fan_avg", "seed": null, "scale": 1.0, "distribution": "uniform"}}, "kernel_initializer": {"class_name": "VarianceScaling", "config": {"mode": "fan_avg", "seed": null, "scale": 1.0, "distribution": "uniform"}}, "use_bias": true, "bias_regularizer": null, "name": "conv1d_129", "filters": 64, "kernel_regularizer": null, "activity_regularizer": null, "bias_constraint": null, "padding": "same", "strides": [1]}, "inbound_nodes": [[["dropout_128", 0, 0, {}]]]}, {"class_name": "Conv1D", "name": "conv1d_102", "config": {"dilation_rate": [1], "activation": "linear", "kernel_constraint": null, "kernel_size": [1], "trainable": true, "bias_initializer": {"class_name": "VarianceScaling", "config": {"mode": "fan_avg", "seed": null, "scale": 1.0, "distribution": "uniform"}}, "kernel_initializer": {"class_name": "VarianceScaling", "config": {"mode": "fan_avg", "seed": null, "scale": 1.0, "distribution": "uniform"}}, "use_bias": true, "bias_regularizer": null, "name": "conv1d_102", "filters": 64, "kernel_regularizer": null, "activity_regularizer": null, "bias_constraint": null, "padding": "same", "strides": [1]}, "inbound_nodes": [[["concatenate_12", 0, 0, {}]]]}, {"class_name": "Conv1D", "name": "conv1d_105", "config": {"dilation_rate": [1], "activation": "linear", "kernel_constraint": null, "kernel_size": [7], "trainable": true, "bias_initializer": {"class_name": "VarianceScaling", "config": {"mode": "fan_avg", "seed": null, "scale": 1.0, "distribution": "uniform"}}, "kernel_initializer": {"class_name": "VarianceScaling", "config": {"mode": "fan_avg", "seed": null, "scale": 1.0, "distribution": "uniform"}}, "use_bias": true, "bias_regularizer": null, "name": "conv1d_105", "filters": 64, "kernel_regularizer": null, "activity_regularizer": null, "bias_constraint": null, "padding": "same", "strides": [1]}, "inbound_nodes": [[["dropout_104", 0, 0, {}]]]}, {"class_name": "Conv1D", "name": "conv1d_109", "config": {"dilation_rate": [1], "activation": "linear", "kernel_constraint": null, "kernel_size": [11], "trainable": true, "bias_initializer": {"class_name": "VarianceScaling", "config": {"mode": "fan_avg", "seed": null, "scale": 1.0, "distribution": "uniform"}}, "kernel_initializer": {"class_name": "VarianceScaling", "config": {"mode": "fan_avg", "seed": null, "scale": 1.0, "distribution": "uniform"}}, "use_bias": true, "bias_regularizer": null, "name": "conv1d_109", "filters": 64, "kernel_regularizer": null, "activity_regularizer": null, "bias_constraint": null, "padding": "same", "strides": [1]}, "inbound_nodes": [[["dropout_108", 0, 0, {}]]]}, {"class_name": "BatchNormalization", "name": "batch_normalization_192", "config": {"moving_mean_initializer": {"class_name": "Zeros", "config": {}}, "gamma_constraint": null, "epsilon": 0.001, "beta_regularizer": null, "trainable": true, "beta_constraint": null, "center": true, "gamma_initializer": {"class_name": "Ones", "config": {}}, "name": "batch_normalization_192", "beta_initializer": {"class_name": "Zeros", "config": {}}, "moving_variance_initializer": {"class_name": "Ones", "config": {}}, "momentum": 0.99, "axis": -1, "scale": true, "gamma_regularizer": null}, "inbound_nodes": [[["conv1d_192", 0, 0, {}]]]}, {"class_name": "BatchNormalization", "name": "batch_normalization_195", "config": {"moving_mean_initializer": {"class_name": "Zeros", "config": {}}, "gamma_constraint": null, "epsilon": 0.001, "beta_regularizer": null, "trainable": true, "beta_constraint": null, "center": true, "gamma_initializer": {"class_name": "Ones", "config": {}}, "name": "batch_normalization_195", "beta_initializer": {"class_name": "Zeros", "config": {}}, "moving_variance_initializer": {"class_name": "Ones", "config": {}}, "momentum": 0.99, "axis": -1, "scale": true, "gamma_regularizer": null}, "inbound_nodes": [[["conv1d_195", 0, 0, {}]]]}, {"class_name": "BatchNormalization", "name": "batch_normalization_199", "config": {"moving_mean_initializer": {"class_name": "Zeros", "config": {}}, "gamma_constraint": null, "epsilon": 0.001, "beta_regularizer": null, "trainable": true, "beta_constraint": null, "center": true, "gamma_initializer": {"class_name": "Ones", "config": {}}, "name": "batch_normalization_199", "beta_initializer": {"class_name": "Zeros", "config": {}}, "moving_variance_initializer": {"class_name": "Ones", "config": {}}, "momentum": 0.99, "axis": -1, "scale": true, "gamma_regularizer": null}, "inbound_nodes": [[["conv1d_199", 0, 0, {}]]]}, {"class_name": "BatchNormalization", "name": "batch_normalization_152", "config": {"moving_mean_initializer": {"class_name": "Zeros", "config": {}}, "gamma_constraint": null, "epsilon": 0.001, "beta_regularizer": null, "trainable": true, "beta_constraint": null, "center": true, "gamma_initializer": {"class_name": "Ones", "config": {}}, "name": "batch_normalization_152", "beta_initializer": {"class_name": "Zeros", "config": {}}, "moving_variance_initializer": {"class_name": "Ones", "config": {}}, "momentum": 0.99, "axis": -1, "scale": true, "gamma_regularizer": null}, "inbound_nodes": [[["conv1d_152", 0, 0, {}]]]}, {"class_name": "BatchNormalization", "name": "batch_normalization_155", "config": {"moving_mean_initializer": {"class_name": "Zeros", "config": {}}, "gamma_constraint": null, "epsilon": 0.001, "beta_regularizer": null, "trainable": true, "beta_constraint": null, "center": true, "gamma_initializer": {"class_name": "Ones", "config": {}}, "name": "batch_normalization_155", "beta_initializer": {"class_name": "Zeros", "config": {}}, "moving_variance_initializer": {"class_name": "Ones", "config": {}}, "momentum": 0.99, "axis": -1, "scale": true, "gamma_regularizer": null}, "inbound_nodes": [[["conv1d_155", 0, 0, {}]]]}, {"class_name": "BatchNormalization", "name": "batch_normalization_159", "config": {"moving_mean_initializer": {"class_name": "Zeros", "config": {}}, "gamma_constraint": null, "epsilon": 0.001, "beta_regularizer": null, "trainable": true, "beta_constraint": null, "center": true, "gamma_initializer": {"class_name": "Ones", "config": {}}, "name": "batch_normalization_159", "beta_initializer": {"class_name": "Zeros", "config": {}}, "moving_variance_initializer": {"class_name": "Ones", "config": {}}, "momentum": 0.99, "axis": -1, "scale": true, "gamma_regularizer": null}, "inbound_nodes": [[["conv1d_159", 0, 0, {}]]]}, {"class_name": "BatchNormalization", "name": "batch_normalization_122", "config": {"moving_mean_initializer": {"class_name": "Zeros", "config": {}}, "gamma_constraint": null, "epsilon": 0.001, "beta_regularizer": null, "trainable": true, "beta_constraint": null, "center": true, "gamma_initializer": {"class_name": "Ones", "config": {}}, "name": "batch_normalization_122", "beta_initializer": {"class_name": "Zeros", "config": {}}, "moving_variance_initializer": {"class_name": "Ones", "config": {}}, "momentum": 0.99, "axis": -1, "scale": true, "gamma_regularizer": null}, "inbound_nodes": [[["conv1d_122", 0, 0, {}]]]}, {"class_name": "BatchNormalization", "name": "batch_normalization_125", "config": {"moving_mean_initializer": {"class_name": "Zeros", "config": {}}, "gamma_constraint": null, "epsilon": 0.001, "beta_regularizer": null, "trainable": true, "beta_constraint": null, "center": true, "gamma_initializer": {"class_name": "Ones", "config": {}}, "name": "batch_normalization_125", "beta_initializer": {"class_name": "Zeros", "config": {}}, "moving_variance_initializer": {"class_name": "Ones", "config": {}}, "momentum": 0.99, "axis": -1, "scale": true, "gamma_regularizer": null}, "inbound_nodes": [[["conv1d_125", 0, 0, {}]]]}, {"class_name": "BatchNormalization", "name": "batch_normalization_129", "config": {"moving_mean_initializer": {"class_name": "Zeros", "config": {}}, "gamma_constraint": null, "epsilon": 0.001, "beta_regularizer": null, "trainable": true, "beta_constraint": null, "center": true, "gamma_initializer": {"class_name": "Ones", "config": {}}, "name": "batch_normalization_129", "beta_initializer": {"class_name": "Zeros", "config": {}}, "moving_variance_initializer": {"class_name": "Ones", "config": {}}, "momentum": 0.99, "axis": -1, "scale": true, "gamma_regularizer": null}, "inbound_nodes": [[["conv1d_129", 0, 0, {}]]]}, {"class_name": "BatchNormalization", "name": "batch_normalization_102", "config": {"moving_mean_initializer": {"class_name": "Zeros", "config": {}}, "gamma_constraint": null, "epsilon": 0.001, "beta_regularizer": null, "trainable": true, "beta_constraint": null, "center": true, "gamma_initializer": {"class_name": "Ones", "config": {}}, "name": "batch_normalization_102", "beta_initializer": {"class_name": "Zeros", "config": {}}, "moving_variance_initializer": {"class_name": "Ones", "config": {}}, "momentum": 0.99, "axis": -1, "scale": true, "gamma_regularizer": null}, "inbound_nodes": [[["conv1d_102", 0, 0, {}]]]}, {"class_name": "BatchNormalization", "name": "batch_normalization_105", "config": {"moving_mean_initializer": {"class_name": "Zeros", "config": {}}, "gamma_constraint": null, "epsilon": 0.001, "beta_regularizer": null, "trainable": true, "beta_constraint": null, "center": true, "gamma_initializer": {"class_name": "Ones", "config": {}}, "name": "batch_normalization_105", "beta_initializer": {"class_name": "Zeros", "config": {}}, "moving_variance_initializer": {"class_name": "Ones", "config": {}}, "momentum": 0.99, "axis": -1, "scale": true, "gamma_regularizer": null}, "inbound_nodes": [[["conv1d_105", 0, 0, {}]]]}, {"class_name": "BatchNormalization", "name": "batch_normalization_109", "config": {"moving_mean_initializer": {"class_name": "Zeros", "config": {}}, "gamma_constraint": null, "epsilon": 0.001, "beta_regularizer": null, "trainable": true, "beta_constraint": null, "center": true, "gamma_initializer": {"class_name": "Ones", "config": {}}, "name": "batch_normalization_109", "beta_initializer": {"class_name": "Zeros", "config": {}}, "moving_variance_initializer": {"class_name": "Ones", "config": {}}, "momentum": 0.99, "axis": -1, "scale": true, "gamma_regularizer": null}, "inbound_nodes": [[["conv1d_109", 0, 0, {}]]]}, {"class_name": "Activation", "name": "activation_192", "config": {"activation": "relu", "name": "activation_192", "trainable": true}, "inbound_nodes": [[["batch_normalization_192", 0, 0, {}]]]}, {"class_name": "Activation", "name": "activation_195", "config": {"activation": "relu", "name": "activation_195", "trainable": true}, "inbound_nodes": [[["batch_normalization_195", 0, 0, {}]]]}, {"class_name": "Activation", "name": "activation_199", "config": {"activation": "relu", "name": "activation_199", "trainable": true}, "inbound_nodes": [[["batch_normalization_199", 0, 0, {}]]]}, {"class_name": "Activation", "name": "activation_152", "config": {"activation": "relu", "name": "activation_152", "trainable": true}, "inbound_nodes": [[["batch_normalization_152", 0, 0, {}]]]}, {"class_name": "Activation", "name": "activation_155", "config": {"activation": "relu", "name": "activation_155", "trainable": true}, "inbound_nodes": [[["batch_normalization_155", 0, 0, {}]]]}, {"class_name": "Activation", "name": "activation_159", "config": {"activation": "relu", "name": "activation_159", "trainable": true}, "inbound_nodes": [[["batch_normalization_159", 0, 0, {}]]]}, {"class_name": "Activation", "name": "activation_122", "config": {"activation": "relu", "name": "activation_122", "trainable": true}, "inbound_nodes": [[["batch_normalization_122", 0, 0, {}]]]}, {"class_name": "Activation", "name": "activation_125", "config": {"activation": "relu", "name": "activation_125", "trainable": true}, "inbound_nodes": [[["batch_normalization_125", 0, 0, {}]]]}, {"class_name": "Activation", "name": "activation_129", "config": {"activation": "relu", "name": "activation_129", "trainable": true}, "inbound_nodes": [[["batch_normalization_129", 0, 0, {}]]]}, {"class_name": "Activation", "name": "activation_102", "config": {"activation": "relu", "name": "activation_102", "trainable": true}, "inbound_nodes": [[["batch_normalization_102", 0, 0, {}]]]}, {"class_name": "Activation", "name": "activation_105", "config": {"activation": "relu", "name": "activation_105", "trainable": true}, "inbound_nodes": [[["batch_normalization_105", 0, 0, {}]]]}, {"class_name": "Activation", "name": "activation_109", "config": {"activation": "relu", "name": "activation_109", "trainable": true}, "inbound_nodes": [[["batch_normalization_109", 0, 0, {}]]]}, {"class_name": "Dropout", "name": "dropout_192", "config": {"rate": 0.45, "name": "dropout_192", "trainable": true}, "inbound_nodes": [[["activation_192", 0, 0, {}]]]}, {"class_name": "Dropout", "name": "dropout_195", "config": {"rate": 0.45, "name": "dropout_195", "trainable": true}, "inbound_nodes": [[["activation_195", 0, 0, {}]]]}, {"class_name": "Dropout", "name": "dropout_199", "config": {"rate": 0.45, "name": "dropout_199", "trainable": true}, "inbound_nodes": [[["activation_199", 0, 0, {}]]]}, {"class_name": "Dropout", "name": "dropout_152", "config": {"rate": 0.45, "name": "dropout_152", "trainable": true}, "inbound_nodes": [[["activation_152", 0, 0, {}]]]}, {"class_name": "Dropout", "name": "dropout_155", "config": {"rate": 0.45, "name": "dropout_155", "trainable": true}, "inbound_nodes": [[["activation_155", 0, 0, {}]]]}, {"class_name": "Dropout", "name": "dropout_159", "config": {"rate": 0.45, "name": "dropout_159", "trainable": true}, "inbound_nodes": [[["activation_159", 0, 0, {}]]]}, {"class_name": "Dropout", "name": "dropout_122", "config": {"rate": 0.45, "name": "dropout_122", "trainable": true}, "inbound_nodes": [[["activation_122", 0, 0, {}]]]}, {"class_name": "Dropout", "name": "dropout_125", "config": {"rate": 0.45, "name": "dropout_125", "trainable": true}, "inbound_nodes": [[["activation_125", 0, 0, {}]]]}, {"class_name": "Dropout", "name": "dropout_129", "config": {"rate": 0.45, "name": "dropout_129", "trainable": true}, "inbound_nodes": [[["activation_129", 0, 0, {}]]]}, {"class_name": "Dropout", "name": "dropout_102", "config": {"rate": 0.45, "name": "dropout_102", "trainable": true}, "inbound_nodes": [[["activation_102", 0, 0, {}]]]}, {"class_name": "Dropout", "name": "dropout_105", "config": {"rate": 0.45, "name": "dropout_105", "trainable": true}, "inbound_nodes": [[["activation_105", 0, 0, {}]]]}, {"class_name": "Dropout", "name": "dropout_109", "config": {"rate": 0.45, "name": "dropout_109", "trainable": true}, "inbound_nodes": [[["activation_109", 0, 0, {}]]]}, {"class_name": "Conv1D", "name": "conv1d_191", "config": {"dilation_rate": [1], "activation": "linear", "kernel_constraint": null, "kernel_size": [1], "trainable": true, "bias_initializer": {"class_name": "VarianceScaling", "config": {"mode": "fan_avg", "seed": null, "scale": 1.0, "distribution": "uniform"}}, "kernel_initializer": {"class_name": "VarianceScaling", "config": {"mode": "fan_avg", "seed": null, "scale": 1.0, "distribution": "uniform"}}, "use_bias": true, "bias_regularizer": null, "name": "conv1d_191", "filters": 64, "kernel_regularizer": null, "activity_regularizer": null, "bias_constraint": null, "padding": "same", "strides": [1]}, "inbound_nodes": [[["concatenate_21", 0, 0, {}]]]}, {"class_name": "Conv1D", "name": "conv1d_193", "config": {"dilation_rate": [1], "activation": "linear", "kernel_constraint": null, "kernel_size": [3], "trainable": true, "bias_initializer": {"class_name": "VarianceScaling", "config": {"mode": "fan_avg", "seed": null, "scale": 1.0, "distribution": "uniform"}}, "kernel_initializer": {"class_name": "VarianceScaling", "config": {"mode": "fan_avg", "seed": null, "scale": 1.0, "distribution": "uniform"}}, "use_bias": true, "bias_regularizer": null, "name": "conv1d_193", "filters": 64, "kernel_regularizer": null, "activity_regularizer": null, "bias_constraint": null, "padding": "same", "strides": [1]}, "inbound_nodes": [[["dropout_192", 0, 0, {}]]]}, {"class_name": "Conv1D", "name": "conv1d_196", "config": {"dilation_rate": [1], "activation": "linear", "kernel_constraint": null, "kernel_size": [7], "trainable": true, "bias_initializer": {"class_name": "VarianceScaling", "config": {"mode": "fan_avg", "seed": null, "scale": 1.0, "distribution": "uniform"}}, "kernel_initializer": {"class_name": "VarianceScaling", "config": {"mode": "fan_avg", "seed": null, "scale": 1.0, "distribution": "uniform"}}, "use_bias": true, "bias_regularizer": null, "name": "conv1d_196", "filters": 64, "kernel_regularizer": null, "activity_regularizer": null, "bias_constraint": null, "padding": "same", "strides": [1]}, "inbound_nodes": [[["dropout_195", 0, 0, {}]]]}, {"class_name": "Conv1D", "name": "conv1d_200", "config": {"dilation_rate": [1], "activation": "linear", "kernel_constraint": null, "kernel_size": [11], "trainable": true, "bias_initializer": {"class_name": "VarianceScaling", "config": {"mode": "fan_avg", "seed": null, "scale": 1.0, "distribution": "uniform"}}, "kernel_initializer": {"class_name": "VarianceScaling", "config": {"mode": "fan_avg", "seed": null, "scale": 1.0, "distribution": "uniform"}}, "use_bias": true, "bias_regularizer": null, "name": "conv1d_200", "filters": 64, "kernel_regularizer": null, "activity_regularizer": null, "bias_constraint": null, "padding": "same", "strides": [1]}, "inbound_nodes": [[["dropout_199", 0, 0, {}]]]}, {"class_name": "Conv1D", "name": "conv1d_151", "config": {"dilation_rate": [1], "activation": "linear", "kernel_constraint": null, "kernel_size": [1], "trainable": true, "bias_initializer": {"class_name": "VarianceScaling", "config": {"mode": "fan_avg", "seed": null, "scale": 1.0, "distribution": "uniform"}}, "kernel_initializer": {"class_name": "VarianceScaling", "config": {"mode": "fan_avg", "seed": null, "scale": 1.0, "distribution": "uniform"}}, "use_bias": true, "bias_regularizer": null, "name": "conv1d_151", "filters": 64, "kernel_regularizer": null, "activity_regularizer": null, "bias_constraint": null, "padding": "same", "strides": [1]}, "inbound_nodes": [[["concatenate_17", 0, 0, {}]]]}, {"class_name": "Conv1D", "name": "conv1d_153", "config": {"dilation_rate": [1], "activation": "linear", "kernel_constraint": null, "kernel_size": [3], "trainable": true, "bias_initializer": {"class_name": "VarianceScaling", "config": {"mode": "fan_avg", "seed": null, "scale": 1.0, "distribution": "uniform"}}, "kernel_initializer": {"class_name": "VarianceScaling", "config": {"mode": "fan_avg", "seed": null, "scale": 1.0, "distribution": "uniform"}}, "use_bias": true, "bias_regularizer": null, "name": "conv1d_153", "filters": 64, "kernel_regularizer": null, "activity_regularizer": null, "bias_constraint": null, "padding": "same", "strides": [1]}, "inbound_nodes": [[["dropout_152", 0, 0, {}]]]}, {"class_name": "Conv1D", "name": "conv1d_156", "config": {"dilation_rate": [1], "activation": "linear", "kernel_constraint": null, "kernel_size": [7], "trainable": true, "bias_initializer": {"class_name": "VarianceScaling", "config": {"mode": "fan_avg", "seed": null, "scale": 1.0, "distribution": "uniform"}}, "kernel_initializer": {"class_name": "VarianceScaling", "config": {"mode": "fan_avg", "seed": null, "scale": 1.0, "distribution": "uniform"}}, "use_bias": true, "bias_regularizer": null, "name": "conv1d_156", "filters": 64, "kernel_regularizer": null, "activity_regularizer": null, "bias_constraint": null, "padding": "same", "strides": [1]}, "inbound_nodes": [[["dropout_155", 0, 0, {}]]]}, {"class_name": "Conv1D", "name": "conv1d_160", "config": {"dilation_rate": [1], "activation": "linear", "kernel_constraint": null, "kernel_size": [11], "trainable": true, "bias_initializer": {"class_name": "VarianceScaling", "config": {"mode": "fan_avg", "seed": null, "scale": 1.0, "distribution": "uniform"}}, "kernel_initializer": {"class_name": "VarianceScaling", "config": {"mode": "fan_avg", "seed": null, "scale": 1.0, "distribution": "uniform"}}, "use_bias": true, "bias_regularizer": null, "name": "conv1d_160", "filters": 64, "kernel_regularizer": null, "activity_regularizer": null, "bias_constraint": null, "padding": "same", "strides": [1]}, "inbound_nodes": [[["dropout_159", 0, 0, {}]]]}, {"class_name": "Conv1D", "name": "conv1d_121", "config": {"dilation_rate": [1], "activation": "linear", "kernel_constraint": null, "kernel_size": [1], "trainable": true, "bias_initializer": {"class_name": "VarianceScaling", "config": {"mode": "fan_avg", "seed": null, "scale": 1.0, "distribution": "uniform"}}, "kernel_initializer": {"class_name": "VarianceScaling", "config": {"mode": "fan_avg", "seed": null, "scale": 1.0, "distribution": "uniform"}}, "use_bias": true, "bias_regularizer": null, "name": "conv1d_121", "filters": 64, "kernel_regularizer": null, "activity_regularizer": null, "bias_constraint": null, "padding": "same", "strides": [1]}, "inbound_nodes": [[["concatenate_14", 0, 0, {}]]]}, {"class_name": "Conv1D", "name": "conv1d_123", "config": {"dilation_rate": [1], "activation": "linear", "kernel_constraint": null, "kernel_size": [3], "trainable": true, "bias_initializer": {"class_name": "VarianceScaling", "config": {"mode": "fan_avg", "seed": null, "scale": 1.0, "distribution": "uniform"}}, "kernel_initializer": {"class_name": "VarianceScaling", "config": {"mode": "fan_avg", "seed": null, "scale": 1.0, "distribution": "uniform"}}, "use_bias": true, "bias_regularizer": null, "name": "conv1d_123", "filters": 64, "kernel_regularizer": null, "activity_regularizer": null, "bias_constraint": null, "padding": "same", "strides": [1]}, "inbound_nodes": [[["dropout_122", 0, 0, {}]]]}, {"class_name": "Conv1D", "name": "conv1d_126", "config": {"dilation_rate": [1], "activation": "linear", "kernel_constraint": null, "kernel_size": [7], "trainable": true, "bias_initializer": {"class_name": "VarianceScaling", "config": {"mode": "fan_avg", "seed": null, "scale": 1.0, "distribution": "uniform"}}, "kernel_initializer": {"class_name": "VarianceScaling", "config": {"mode": "fan_avg", "seed": null, "scale": 1.0, "distribution": "uniform"}}, "use_bias": true, "bias_regularizer": null, "name": "conv1d_126", "filters": 64, "kernel_regularizer": null, "activity_regularizer": null, "bias_constraint": null, "padding": "same", "strides": [1]}, "inbound_nodes": [[["dropout_125", 0, 0, {}]]]}, {"class_name": "Conv1D", "name": "conv1d_130", "config": {"dilation_rate": [1], "activation": "linear", "kernel_constraint": null, "kernel_size": [11], "trainable": true, "bias_initializer": {"class_name": "VarianceScaling", "config": {"mode": "fan_avg", "seed": null, "scale": 1.0, "distribution": "uniform"}}, "kernel_initializer": {"class_name": "VarianceScaling", "config": {"mode": "fan_avg", "seed": null, "scale": 1.0, "distribution": "uniform"}}, "use_bias": true, "bias_regularizer": null, "name": "conv1d_130", "filters": 64, "kernel_regularizer": null, "activity_regularizer": null, "bias_constraint": null, "padding": "same", "strides": [1]}, "inbound_nodes": [[["dropout_129", 0, 0, {}]]]}, {"class_name": "Conv1D", "name": "conv1d_101", "config": {"dilation_rate": [1], "activation": "linear", "kernel_constraint": null, "kernel_size": [1], "trainable": true, "bias_initializer": {"class_name": "VarianceScaling", "config": {"mode": "fan_avg", "seed": null, "scale": 1.0, "distribution": "uniform"}}, "kernel_initializer": {"class_name": "VarianceScaling", "config": {"mode": "fan_avg", "seed": null, "scale": 1.0, "distribution": "uniform"}}, "use_bias": true, "bias_regularizer": null, "name": "conv1d_101", "filters": 64, "kernel_regularizer": null, "activity_regularizer": null, "bias_constraint": null, "padding": "same", "strides": [1]}, "inbound_nodes": [[["concatenate_12", 0, 0, {}]]]}, {"class_name": "Conv1D", "name": "conv1d_103", "config": {"dilation_rate": [1], "activation": "linear", "kernel_constraint": null, "kernel_size": [3], "trainable": true, "bias_initializer": {"class_name": "VarianceScaling", "config": {"mode": "fan_avg", "seed": null, "scale": 1.0, "distribution": "uniform"}}, "kernel_initializer": {"class_name": "VarianceScaling", "config": {"mode": "fan_avg", "seed": null, "scale": 1.0, "distribution": "uniform"}}, "use_bias": true, "bias_regularizer": null, "name": "conv1d_103", "filters": 64, "kernel_regularizer": null, "activity_regularizer": null, "bias_constraint": null, "padding": "same", "strides": [1]}, "inbound_nodes": [[["dropout_102", 0, 0, {}]]]}, {"class_name": "Conv1D", "name": "conv1d_106", "config": {"dilation_rate": [1], "activation": "linear", "kernel_constraint": null, "kernel_size": [7], "trainable": true, "bias_initializer": {"class_name": "VarianceScaling", "config": {"mode": "fan_avg", "seed": null, "scale": 1.0, "distribution": "uniform"}}, "kernel_initializer": {"class_name": "VarianceScaling", "config": {"mode": "fan_avg", "seed": null, "scale": 1.0, "distribution": "uniform"}}, "use_bias": true, "bias_regularizer": null, "name": "conv1d_106", "filters": 64, "kernel_regularizer": null, "activity_regularizer": null, "bias_constraint": null, "padding": "same", "strides": [1]}, "inbound_nodes": [[["dropout_105", 0, 0, {}]]]}, {"class_name": "Conv1D", "name": "conv1d_110", "config": {"dilation_rate": [1], "activation": "linear", "kernel_constraint": null, "kernel_size": [11], "trainable": true, "bias_initializer": {"class_name": "VarianceScaling", "config": {"mode": "fan_avg", "seed": null, "scale": 1.0, "distribution": "uniform"}}, "kernel_initializer": {"class_name": "VarianceScaling", "config": {"mode": "fan_avg", "seed": null, "scale": 1.0, "distribution": "uniform"}}, "use_bias": true, "bias_regularizer": null, "name": "conv1d_110", "filters": 64, "kernel_regularizer": null, "activity_regularizer": null, "bias_constraint": null, "padding": "same", "strides": [1]}, "inbound_nodes": [[["dropout_109", 0, 0, {}]]]}, {"class_name": "BatchNormalization", "name": "batch_normalization_191", "config": {"moving_mean_initializer": {"class_name": "Zeros", "config": {}}, "gamma_constraint": null, "epsilon": 0.001, "beta_regularizer": null, "trainable": true, "beta_constraint": null, "center": true, "gamma_initializer": {"class_name": "Ones", "config": {}}, "name": "batch_normalization_191", "beta_initializer": {"class_name": "Zeros", "config": {}}, "moving_variance_initializer": {"class_name": "Ones", "config": {}}, "momentum": 0.99, "axis": -1, "scale": true, "gamma_regularizer": null}, "inbound_nodes": [[["conv1d_191", 0, 0, {}]]]}, {"class_name": "BatchNormalization", "name": "batch_normalization_193", "config": {"moving_mean_initializer": {"class_name": "Zeros", "config": {}}, "gamma_constraint": null, "epsilon": 0.001, "beta_regularizer": null, "trainable": true, "beta_constraint": null, "center": true, "gamma_initializer": {"class_name": "Ones", "config": {}}, "name": "batch_normalization_193", "beta_initializer": {"class_name": "Zeros", "config": {}}, "moving_variance_initializer": {"class_name": "Ones", "config": {}}, "momentum": 0.99, "axis": -1, "scale": true, "gamma_regularizer": null}, "inbound_nodes": [[["conv1d_193", 0, 0, {}]]]}, {"class_name": "BatchNormalization", "name": "batch_normalization_196", "config": {"moving_mean_initializer": {"class_name": "Zeros", "config": {}}, "gamma_constraint": null, "epsilon": 0.001, "beta_regularizer": null, "trainable": true, "beta_constraint": null, "center": true, "gamma_initializer": {"class_name": "Ones", "config": {}}, "name": "batch_normalization_196", "beta_initializer": {"class_name": "Zeros", "config": {}}, "moving_variance_initializer": {"class_name": "Ones", "config": {}}, "momentum": 0.99, "axis": -1, "scale": true, "gamma_regularizer": null}, "inbound_nodes": [[["conv1d_196", 0, 0, {}]]]}, {"class_name": "BatchNormalization", "name": "batch_normalization_200", "config": {"moving_mean_initializer": {"class_name": "Zeros", "config": {}}, "gamma_constraint": null, "epsilon": 0.001, "beta_regularizer": null, "trainable": true, "beta_constraint": null, "center": true, "gamma_initializer": {"class_name": "Ones", "config": {}}, "name": "batch_normalization_200", "beta_initializer": {"class_name": "Zeros", "config": {}}, "moving_variance_initializer": {"class_name": "Ones", "config": {}}, "momentum": 0.99, "axis": -1, "scale": true, "gamma_regularizer": null}, "inbound_nodes": [[["conv1d_200", 0, 0, {}]]]}, {"class_name": "BatchNormalization", "name": "batch_normalization_151", "config": {"moving_mean_initializer": {"class_name": "Zeros", "config": {}}, "gamma_constraint": null, "epsilon": 0.001, "beta_regularizer": null, "trainable": true, "beta_constraint": null, "center": true, "gamma_initializer": {"class_name": "Ones", "config": {}}, "name": "batch_normalization_151", "beta_initializer": {"class_name": "Zeros", "config": {}}, "moving_variance_initializer": {"class_name": "Ones", "config": {}}, "momentum": 0.99, "axis": -1, "scale": true, "gamma_regularizer": null}, "inbound_nodes": [[["conv1d_151", 0, 0, {}]]]}, {"class_name": "BatchNormalization", "name": "batch_normalization_153", "config": {"moving_mean_initializer": {"class_name": "Zeros", "config": {}}, "gamma_constraint": null, "epsilon": 0.001, "beta_regularizer": null, "trainable": true, "beta_constraint": null, "center": true, "gamma_initializer": {"class_name": "Ones", "config": {}}, "name": "batch_normalization_153", "beta_initializer": {"class_name": "Zeros", "config": {}}, "moving_variance_initializer": {"class_name": "Ones", "config": {}}, "momentum": 0.99, "axis": -1, "scale": true, "gamma_regularizer": null}, "inbound_nodes": [[["conv1d_153", 0, 0, {}]]]}, {"class_name": "BatchNormalization", "name": "batch_normalization_156", "config": {"moving_mean_initializer": {"class_name": "Zeros", "config": {}}, "gamma_constraint": null, "epsilon": 0.001, "beta_regularizer": null, "trainable": true, "beta_constraint": null, "center": true, "gamma_initializer": {"class_name": "Ones", "config": {}}, "name": "batch_normalization_156", "beta_initializer": {"class_name": "Zeros", "config": {}}, "moving_variance_initializer": {"class_name": "Ones", "config": {}}, "momentum": 0.99, "axis": -1, "scale": true, "gamma_regularizer": null}, "inbound_nodes": [[["conv1d_156", 0, 0, {}]]]}, {"class_name": "BatchNormalization", "name": "batch_normalization_160", "config": {"moving_mean_initializer": {"class_name": "Zeros", "config": {}}, "gamma_constraint": null, "epsilon": 0.001, "beta_regularizer": null, "trainable": true, "beta_constraint": null, "center": true, "gamma_initializer": {"class_name": "Ones", "config": {}}, "name": "batch_normalization_160", "beta_initializer": {"class_name": "Zeros", "config": {}}, "moving_variance_initializer": {"class_name": "Ones", "config": {}}, "momentum": 0.99, "axis": -1, "scale": true, "gamma_regularizer": null}, "inbound_nodes": [[["conv1d_160", 0, 0, {}]]]}, {"class_name": "BatchNormalization", "name": "batch_normalization_121", "config": {"moving_mean_initializer": {"class_name": "Zeros", "config": {}}, "gamma_constraint": null, "epsilon": 0.001, "beta_regularizer": null, "trainable": true, "beta_constraint": null, "center": true, "gamma_initializer": {"class_name": "Ones", "config": {}}, "name": "batch_normalization_121", "beta_initializer": {"class_name": "Zeros", "config": {}}, "moving_variance_initializer": {"class_name": "Ones", "config": {}}, "momentum": 0.99, "axis": -1, "scale": true, "gamma_regularizer": null}, "inbound_nodes": [[["conv1d_121", 0, 0, {}]]]}, {"class_name": "BatchNormalization", "name": "batch_normalization_123", "config": {"moving_mean_initializer": {"class_name": "Zeros", "config": {}}, "gamma_constraint": null, "epsilon": 0.001, "beta_regularizer": null, "trainable": true, "beta_constraint": null, "center": true, "gamma_initializer": {"class_name": "Ones", "config": {}}, "name": "batch_normalization_123", "beta_initializer": {"class_name": "Zeros", "config": {}}, "moving_variance_initializer": {"class_name": "Ones", "config": {}}, "momentum": 0.99, "axis": -1, "scale": true, "gamma_regularizer": null}, "inbound_nodes": [[["conv1d_123", 0, 0, {}]]]}, {"class_name": "BatchNormalization", "name": "batch_normalization_126", "config": {"moving_mean_initializer": {"class_name": "Zeros", "config": {}}, "gamma_constraint": null, "epsilon": 0.001, "beta_regularizer": null, "trainable": true, "beta_constraint": null, "center": true, "gamma_initializer": {"class_name": "Ones", "config": {}}, "name": "batch_normalization_126", "beta_initializer": {"class_name": "Zeros", "config": {}}, "moving_variance_initializer": {"class_name": "Ones", "config": {}}, "momentum": 0.99, "axis": -1, "scale": true, "gamma_regularizer": null}, "inbound_nodes": [[["conv1d_126", 0, 0, {}]]]}, {"class_name": "BatchNormalization", "name": "batch_normalization_130", "config": {"moving_mean_initializer": {"class_name": "Zeros", "config": {}}, "gamma_constraint": null, "epsilon": 0.001, "beta_regularizer": null, "trainable": true, "beta_constraint": null, "center": true, "gamma_initializer": {"class_name": "Ones", "config": {}}, "name": "batch_normalization_130", "beta_initializer": {"class_name": "Zeros", "config": {}}, "moving_variance_initializer": {"class_name": "Ones", "config": {}}, "momentum": 0.99, "axis": -1, "scale": true, "gamma_regularizer": null}, "inbound_nodes": [[["conv1d_130", 0, 0, {}]]]}, {"class_name": "BatchNormalization", "name": "batch_normalization_101", "config": {"moving_mean_initializer": {"class_name": "Zeros", "config": {}}, "gamma_constraint": null, "epsilon": 0.001, "beta_regularizer": null, "trainable": true, "beta_constraint": null, "center": true, "gamma_initializer": {"class_name": "Ones", "config": {}}, "name": "batch_normalization_101", "beta_initializer": {"class_name": "Zeros", "config": {}}, "moving_variance_initializer": {"class_name": "Ones", "config": {}}, "momentum": 0.99, "axis": -1, "scale": true, "gamma_regularizer": null}, "inbound_nodes": [[["conv1d_101", 0, 0, {}]]]}, {"class_name": "BatchNormalization", "name": "batch_normalization_103", "config": {"moving_mean_initializer": {"class_name": "Zeros", "config": {}}, "gamma_constraint": null, "epsilon": 0.001, "beta_regularizer": null, "trainable": true, "beta_constraint": null, "center": true, "gamma_initializer": {"class_name": "Ones", "config": {}}, "name": "batch_normalization_103", "beta_initializer": {"class_name": "Zeros", "config": {}}, "moving_variance_initializer": {"class_name": "Ones", "config": {}}, "momentum": 0.99, "axis": -1, "scale": true, "gamma_regularizer": null}, "inbound_nodes": [[["conv1d_103", 0, 0, {}]]]}, {"class_name": "BatchNormalization", "name": "batch_normalization_106", "config": {"moving_mean_initializer": {"class_name": "Zeros", "config": {}}, "gamma_constraint": null, "epsilon": 0.001, "beta_regularizer": null, "trainable": true, "beta_constraint": null, "center": true, "gamma_initializer": {"class_name": "Ones", "config": {}}, "name": "batch_normalization_106", "beta_initializer": {"class_name": "Zeros", "config": {}}, "moving_variance_initializer": {"class_name": "Ones", "config": {}}, "momentum": 0.99, "axis": -1, "scale": true, "gamma_regularizer": null}, "inbound_nodes": [[["conv1d_106", 0, 0, {}]]]}, {"class_name": "BatchNormalization", "name": "batch_normalization_110", "config": {"moving_mean_initializer": {"class_name": "Zeros", "config": {}}, "gamma_constraint": null, "epsilon": 0.001, "beta_regularizer": null, "trainable": true, "beta_constraint": null, "center": true, "gamma_initializer": {"class_name": "Ones", "config": {}}, "name": "batch_normalization_110", "beta_initializer": {"class_name": "Zeros", "config": {}}, "moving_variance_initializer": {"class_name": "Ones", "config": {}}, "momentum": 0.99, "axis": -1, "scale": true, "gamma_regularizer": null}, "inbound_nodes": [[["conv1d_110", 0, 0, {}]]]}, {"class_name": "Activation", "name": "activation_191", "config": {"activation": "relu", "name": "activation_191", "trainable": true}, "inbound_nodes": [[["batch_normalization_191", 0, 0, {}]]]}, {"class_name": "Activation", "name": "activation_193", "config": {"activation": "relu", "name": "activation_193", "trainable": true}, "inbound_nodes": [[["batch_normalization_193", 0, 0, {}]]]}, {"class_name": "Activation", "name": "activation_196", "config": {"activation": "relu", "name": "activation_196", "trainable": true}, "inbound_nodes": [[["batch_normalization_196", 0, 0, {}]]]}, {"class_name": "Activation", "name": "activation_200", "config": {"activation": "relu", "name": "activation_200", "trainable": true}, "inbound_nodes": [[["batch_normalization_200", 0, 0, {}]]]}, {"class_name": "Activation", "name": "activation_151", "config": {"activation": "relu", "name": "activation_151", "trainable": true}, "inbound_nodes": [[["batch_normalization_151", 0, 0, {}]]]}, {"class_name": "Activation", "name": "activation_153", "config": {"activation": "relu", "name": "activation_153", "trainable": true}, "inbound_nodes": [[["batch_normalization_153", 0, 0, {}]]]}, {"class_name": "Activation", "name": "activation_156", "config": {"activation": "relu", "name": "activation_156", "trainable": true}, "inbound_nodes": [[["batch_normalization_156", 0, 0, {}]]]}, {"class_name": "Activation", "name": "activation_160", "config": {"activation": "relu", "name": "activation_160", "trainable": true}, "inbound_nodes": [[["batch_normalization_160", 0, 0, {}]]]}, {"class_name": "Activation", "name": "activation_121", "config": {"activation": "relu", "name": "activation_121", "trainable": true}, "inbound_nodes": [[["batch_normalization_121", 0, 0, {}]]]}, {"class_name": "Activation", "name": "activation_123", "config": {"activation": "relu", "name": "activation_123", "trainable": true}, "inbound_nodes": [[["batch_normalization_123", 0, 0, {}]]]}, {"class_name": "Activation", "name": "activation_126", "config": {"activation": "relu", "name": "activation_126", "trainable": true}, "inbound_nodes": [[["batch_normalization_126", 0, 0, {}]]]}, {"class_name": "Activation", "name": "activation_130", "config": {"activation": "relu", "name": "activation_130", "trainable": true}, "inbound_nodes": [[["batch_normalization_130", 0, 0, {}]]]}, {"class_name": "Activation", "name": "activation_101", "config": {"activation": "relu", "name": "activation_101", "trainable": true}, "inbound_nodes": [[["batch_normalization_101", 0, 0, {}]]]}, {"class_name": "Activation", "name": "activation_103", "config": {"activation": "relu", "name": "activation_103", "trainable": true}, "inbound_nodes": [[["batch_normalization_103", 0, 0, {}]]]}, {"class_name": "Activation", "name": "activation_106", "config": {"activation": "relu", "name": "activation_106", "trainable": true}, "inbound_nodes": [[["batch_normalization_106", 0, 0, {}]]]}, {"class_name": "Activation", "name": "activation_110", "config": {"activation": "relu", "name": "activation_110", "trainable": true}, "inbound_nodes": [[["batch_normalization_110", 0, 0, {}]]]}, {"class_name": "Dropout", "name": "dropout_191", "config": {"rate": 0.45, "name": "dropout_191", "trainable": true}, "inbound_nodes": [[["activation_191", 0, 0, {}]]]}, {"class_name": "Dropout", "name": "dropout_193", "config": {"rate": 0.45, "name": "dropout_193", "trainable": true}, "inbound_nodes": [[["activation_193", 0, 0, {}]]]}, {"class_name": "Dropout", "name": "dropout_196", "config": {"rate": 0.45, "name": "dropout_196", "trainable": true}, "inbound_nodes": [[["activation_196", 0, 0, {}]]]}, {"class_name": "Dropout", "name": "dropout_200", "config": {"rate": 0.45, "name": "dropout_200", "trainable": true}, "inbound_nodes": [[["activation_200", 0, 0, {}]]]}, {"class_name": "Dropout", "name": "dropout_151", "config": {"rate": 0.45, "name": "dropout_151", "trainable": true}, "inbound_nodes": [[["activation_151", 0, 0, {}]]]}, {"class_name": "Dropout", "name": "dropout_153", "config": {"rate": 0.45, "name": "dropout_153", "trainable": true}, "inbound_nodes": [[["activation_153", 0, 0, {}]]]}, {"class_name": "Dropout", "name": "dropout_156", "config": {"rate": 0.45, "name": "dropout_156", "trainable": true}, "inbound_nodes": [[["activation_156", 0, 0, {}]]]}, {"class_name": "Dropout", "name": "dropout_160", "config": {"rate": 0.45, "name": "dropout_160", "trainable": true}, "inbound_nodes": [[["activation_160", 0, 0, {}]]]}, {"class_name": "Dropout", "name": "dropout_121", "config": {"rate": 0.45, "name": "dropout_121", "trainable": true}, "inbound_nodes": [[["activation_121", 0, 0, {}]]]}, {"class_name": "Dropout", "name": "dropout_123", "config": {"rate": 0.45, "name": "dropout_123", "trainable": true}, "inbound_nodes": [[["activation_123", 0, 0, {}]]]}, {"class_name": "Dropout", "name": "dropout_126", "config": {"rate": 0.45, "name": "dropout_126", "trainable": true}, "inbound_nodes": [[["activation_126", 0, 0, {}]]]}, {"class_name": "Dropout", "name": "dropout_130", "config": {"rate": 0.45, "name": "dropout_130", "trainable": true}, "inbound_nodes": [[["activation_130", 0, 0, {}]]]}, {"class_name": "Dropout", "name": "dropout_101", "config": {"rate": 0.45, "name": "dropout_101", "trainable": true}, "inbound_nodes": [[["activation_101", 0, 0, {}]]]}, {"class_name": "Dropout", "name": "dropout_103", "config": {"rate": 0.45, "name": "dropout_103", "trainable": true}, "inbound_nodes": [[["activation_103", 0, 0, {}]]]}, {"class_name": "Dropout", "name": "dropout_106", "config": {"rate": 0.45, "name": "dropout_106", "trainable": true}, "inbound_nodes": [[["activation_106", 0, 0, {}]]]}, {"class_name": "Dropout", "name": "dropout_110", "config": {"rate": 0.45, "name": "dropout_110", "trainable": true}, "inbound_nodes": [[["activation_110", 0, 0, {}]]]}, {"class_name": "Concatenate", "name": "concatenate_22", "config": {"name": "concatenate_22", "trainable": true, "axis": -1}, "inbound_nodes": [[["dropout_191", 0, 0, {}], ["dropout_193", 0, 0, {}], ["dropout_196", 0, 0, {}], ["dropout_200", 0, 0, {}]]]}, {"class_name": "Concatenate", "name": "concatenate_18", "config": {"name": "concatenate_18", "trainable": true, "axis": -1}, "inbound_nodes": [[["dropout_151", 0, 0, {}], ["dropout_153", 0, 0, {}], ["dropout_156", 0, 0, {}], ["dropout_160", 0, 0, {}]]]}, {"class_name": "Concatenate", "name": "concatenate_15", "config": {"name": "concatenate_15", "trainable": true, "axis": -1}, "inbound_nodes": [[["dropout_121", 0, 0, {}], ["dropout_123", 0, 0, {}], ["dropout_126", 0, 0, {}], ["dropout_130", 0, 0, {}]]]}, {"class_name": "Concatenate", "name": "concatenate_13", "config": {"name": "concatenate_13", "trainable": true, "axis": -1}, "inbound_nodes": [[["dropout_101", 0, 0, {}], ["dropout_103", 0, 0, {}], ["dropout_106", 0, 0, {}], ["dropout_110", 0, 0, {}]]]}, {"class_name": "Concatenate", "name": "concatenate_23", "config": {"name": "concatenate_23", "trainable": true, "axis": -1}, "inbound_nodes": [[["concatenate_22", 0, 0, {}], ["concatenate_18", 0, 0, {}], ["concatenate_15", 0, 0, {}], ["concatenate_13", 0, 0, {}]]]}, {"class_name": "Dense", "name": "dense_2", "config": {"activation": "relu", "kernel_constraint": null, "trainable": true, "bias_initializer": {"class_name": "VarianceScaling", "config": {"mode": "fan_avg", "seed": null, "scale": 1.0, "distribution": "uniform"}}, "kernel_initializer": {"class_name": "VarianceScaling", "config": {"mode": "fan_avg", "seed": null, "scale": 1.0, "distribution": "uniform"}}, "use_bias": true, "bias_regularizer": null, "name": "dense_2", "kernel_regularizer": null, "activity_regularizer": null, "bias_constraint": null, "units": 455}, "inbound_nodes": [[["concatenate_23", 0, 0, {}]]]}, {"class_name": "Dropout", "name": "dropout_201", "config": {"rate": 0.25, "name": "dropout_201", "trainable": true}, "inbound_nodes": [[["dense_2", 0, 0, {}]]]}, {"class_name": "Dense", "name": "dense_3", "config": {"activation": "relu", "kernel_constraint": null, "trainable": true, "bias_initializer": {"class_name": "VarianceScaling", "config": {"mode": "fan_avg", "seed": null, "scale": 1.0, "distribution": "uniform"}}, "kernel_initializer": {"class_name": "VarianceScaling", "config": {"mode": "fan_avg", "seed": null, "scale": 1.0, "distribution": "uniform"}}, "use_bias": true, "bias_regularizer": null, "name": "dense_3", "kernel_regularizer": null, "activity_regularizer": null, "bias_constraint": null, "units": 455}, "inbound_nodes": [[["dropout_201", 0, 0, {}]]]}, {"class_name": "Dense", "name": "ss_output", "config": {"activation": "softmax", "kernel_constraint": null, "trainable": true, "bias_initializer": {"class_name": "VarianceScaling", "config": {"mode": "fan_avg", "seed": null, "scale": 1.0, "distribution": "uniform"}}, "kernel_initializer": {"class_name": "VarianceScaling", "config": {"mode": "fan_avg", "seed": null, "scale": 1.0, "distribution": "uniform"}}, "use_bias": true, "bias_regularizer": null, "name": "ss_output", "kernel_regularizer": null, "activity_regularizer": null, "bias_constraint": null, "units": 4}, "inbound_nodes": [[["dense_3", 0, 0, {}]]]}], "output_layers": [["ss_output", 0, 0]], "name": "model_1", "input_layers": [["sequence_input", 0, 0], ["profile_input", 0, 0]]}, "class_name": "Model", "keras_version": "2.0.0"}